src/centroidal-mpc-walking/config/robots/ergoCubGazeboV1/onnx_50_mann4_smaller_steps.onnx (onnx, 828618 bytes, 16 tensors)

0.weight f4 [124, 124]
4.637586 0.0 0.0 0.0 0.0 0.0 0.0 0.0
0.0 0.0 0.0 0.0 0.0 0.0 0.0 0.0
0.0 0.0 0.0 0.0 0.0 0.0 0.0 0.0
0.0 0.0 0.0 0.0 0.0 0.0 0.0 0.0
0.0 0.0 0.0 0.0 0.0 0.0 0.0 0.0
0.0 0.0 0.0 0.0 0.0 0.0 0.0 0.0
0.0 0.0 0.0 0.0 0.0 0.0 0.0 0.0
0.0 0.0 0.0 0.0 0.0 0.0 0.0 0.0
0.0 0.0 0.0 0.0 0.0 0.0 0.0 0.0
0.0 0.0 0.0 0.0 0.0 0.0 0.0 0.0
0.0 0.0 0.0 0.0 0.0 0.0 0.0 0.0
0.0 0.0 0.0 0.0 0.0 0.0 0.0 0.0
0.0 0.0 0.0 0.0 0.0 0.0 0.0 0.0
0.0 0.0 0.0 0.0 0.0 0.0 0.0 0.0
0.0 0.0 0.0 0.0 0.0 0.0 0.0 0.0
0.0 0.0 0.0 0.0 0.0 7.3575497 0.0 0.0
0.0 0.0 0.0 0.0 0.0 0.0 0.0 0.0
0.0 0.0 0.0 0.0 0.0 0.0 0.0 0.0
0.0 0.0 0.0 0.0 0.0 0.0 0.0 0.0
0.0 0.0 0.0 0.0 0.0 0.0 0.0 0.0
0.0 0.0 0.0 0.0 0.0 0.0 0.0 0.0
0.0 0.0 0.0 0.0 0.0 0.0 0.0 0.0
0.0 0.0 0.0 0.0 0.0 0.0 0.0 0.0
0.0 0.0 0.0 0.0 0.0 0.0 0.0 0.0
0.0 0.0 0.0 0.0 0.0 0.0 0.0 0.0
0.0 0.0 0.0 0.0 0.0 0.0 0.0 0.0
0.0 0.0 0.0 0.0 0.0 0.0 0.0 0.0
0.0 0.0 0.0 0.0 0.0 0.0 0.0 0.0
0.0 0.0 0.0 0.0 0.0 0.0 0.0 0.0
0.0 0.0 0.0 0.0 0.0 0.0 0.0 0.0
0.0 0.0 0.0 0.0 0.0 0.0 0.0 0.0
0.0 0.0 5.766301 0.0 0.0 0.0 0.0 0.0
00000000: 1b67 9440 0000 0000 0000 0000 0000 0000
00000010: 0000 0000 0000 0000 0000 0000 0000 0000
00000020: 0000 0000 0000 0000 0000 0000 0000 0000
00000030: 0000 0000 0000 0000 0000 0000 0000 0000
00000040: 0000 0000 0000 0000 0000 0000 0000 0000
00000050: 0000 0000 0000 0000 0000 0000 0000 0000
00000060: 0000 0000 0000 0000 0000 0000 0000 0000
00000070: 0000 0000 0000 0000 0000 0000 0000 0000
00000080: 0000 0000 0000 0000 0000 0000 0000 0000
00000090: 0000 0000 0000 0000 0000 0000 0000 0000
000000a0: 0000 0000 0000 0000 0000 0000 0000 0000
000000b0: 0000 0000 0000 0000 0000 0000 0000 0000
000000c0: 0000 0000 0000 0000 0000 0000 0000 0000
000000d0: 0000 0000 0000 0000 0000 0000 0000 0000
000000e0: 0000 0000 0000 0000 0000 0000 0000 0000
000000f0: 0000 0000 0000 0000 0000 0000 0000 0000
00000100: 0000 0000 0000 0000 0000 0000 0000 0000
00000110: 0000 0000 0000 0000 0000 0000 0000 0000
00000120: 0000 0000 0000 0000 0000 0000 0000 0000
00000130: 0000 0000 0000 0000 0000 0000 0000 0000
00000140: 0000 0000 0000 0000 0000 0000 0000 0000
00000150: 0000 0000 0000 0000 0000 0000 0000 0000
00000160: 0000 0000 0000 0000 0000 0000 0000 0000
00000170: 0000 0000 0000 0000 0000 0000 0000 0000
00000180: 0000 0000 0000 0000 0000 0000 0000 0000
00000190: 0000 0000 0000 0000 0000 0000 0000 0000
000001a0: 0000 0000 0000 0000 0000 0000 0000 0000
000001b0: 0000 0000 0000 0000 0000 0000 0000 0000
000001c0: 0000 0000 0000 0000 0000 0000 0000 0000
000001d0: 0000 0000 0000 0000 0000 0000 0000 0000
000001e0: 0000 0000 0000 0000 0000 0000 0000 0000
000001f0: 0000 0000 0c71 eb40 0000 0000 0000 0000
00000200: 0000 0000 0000 0000 0000 0000 0000 0000
00000210: 0000 0000 0000 0000 0000 0000 0000 0000
00000220: 0000 0000 0000 0000 0000 0000 0000 0000
00000230: 0000 0000 0000 0000 0000 0000 0000 0000
00000240: 0000 0000 0000 0000 0000 0000 0000 0000
00000250: 0000 0000 0000 0000 0000 0000 0000 0000
00000260: 0000 0000 0000 0000 0000 0000 0000 0000
00000270: 0000 0000 0000 0000 0000 0000 0000 0000
00000280: 0000 0000 0000 0000 0000 0000 0000 0000
00000290: 0000 0000 0000 0000 0000 0000 0000 0000
000002a0: 0000 0000 0000 0000 0000 0000 0000 0000
000002b0: 0000 0000 0000 0000 0000 0000 0000 0000
000002c0: 0000 0000 0000 0000 0000 0000 0000 0000
000002d0: 0000 0000 0000 0000 0000 0000 0000 0000
000002e0: 0000 0000 0000 0000 0000 0000 0000 0000
000002f0: 0000 0000 0000 0000 0000 0000 0000 0000
00000300: 0000 0000 0000 0000 0000 0000 0000 0000
00000310: 0000 0000 0000 0000 0000 0000 0000 0000
00000320: 0000 0000 0000 0000 0000 0000 0000 0000
00000330: 0000 0000 0000 0000 0000 0000 0000 0000
00000340: 0000 0000 0000 0000 0000 0000 0000 0000
00000350: 0000 0000 0000 0000 0000 0000 0000 0000
00000360: 0000 0000 0000 0000 0000 0000 0000 0000
00000370: 0000 0000 0000 0000 0000 0000 0000 0000
00000380: 0000 0000 0000 0000 0000 0000 0000 0000
00000390: 0000 0000 0000 0000 0000 0000 0000 0000
000003a0: 0000 0000 0000 0000 0000 0000 0000 0000
000003b0: 0000 0000 0000 0000 0000 0000 0000 0000
000003c0: 0000 0000 0000 0000 0000 0000 0000 0000
000003d0: 0000 0000 0000 0000 0000 0000 0000 0000
000003e0: 0000 0000 0000 0000 8a85 b840 0000 0000
000003f0: 0000 0000 0000 0000 0000 0000 0000 0000

0.bias f4 [124]
0.17931423 -0.0006155536 0.17532285 -0.00056910777 0.17195618 -0.0005218603 0.17180471 -0.0004906587
0.17591509 -0.00047965322 -0.0 -0.0 -0.1945203 0.00053170876 -0.2035213 0.0005937716
-0.20594642 0.0006654994 -0.20304392 0.00073532615 -0.19937405 0.0007884306 -0.1976516 0.0008125042
-9.176303 -1.636355e-08 -12.859525 -1.0926797e-08 -20.3301 -6.829396e-09 -40.66323 -3.1871588e-09
-144.81888 -4.3142e-09 -1.0 4.626716e-19 -144.7726 6.2000836e-09 -40.629257 3.0133955e-09
-20.30331 8.269676e-09 -12.835631 1.9517014e-08 -9.152384 2.1957291e-08 -6.9583554 2.3955266e-08
-0.14450972 0.00029986145 -0.14353777 0.00030905375 -0.13389547 0.00030474758 -0.12627646 0.00031438057
-0.13190883 0.0003475334 -0.14699854 0.0003966331 -0.1591135 0.00042144276 -0.16223957 0.00043039472
-0.15157782 0.00040423853 -0.13811107 0.000385855 -0.13344625 0.00038323863 -0.13869843 0.00040279404
-0.24815662 -0.86313754 -0.28576437 1.0993985 0.840848 0.90278566 -0.24782619 -0.8804728
-0.28210866 1.0991161 0.8400111 0.9211751 -5.4383535 -3.4650304e-06 1.6441843e-06 -0.6671426
-1.305864e-06 2.4150947e-07 1.2600178 2.6646135 2.880163 -0.7348396 1.2600123 2.664618
2.880163 -0.73483944 5.5470624e-05 0.00011857628 -0.00031204542 -3.7999253e-05 -1.0846894e-05 -0.00017103238
5.563638e-05 0.00011859676 -0.00031194574 -3.7857986e-05 -1.07136775e-05 -0.00017106134 0.0009056639 3.417645e-08
5.8052643e-09 -0.00029713975 9.699402e-08 -1.13793615e-08 -4.8186714e-05 -0.00017195764 -7.7590266e-05 0.0014485444
-4.8224818e-05 -0.00017206583 -7.763619e-05 0.0014485272
00000000: 269e 373e 1a5d 21ba d587 333e 2d30 15ba
00000010: 4815 303e 74cd 08ba 93ed 2f3e 8c9f 00ba
00000020: 1623 343e f779 fbb9 0000 0080 0000 0080
00000030: 5430 47be 5f62 0b3a e367 50be 56a7 1b3a
00000040: 9ee3 52be e974 2e3a bfea 4fbe e7c2 403a
00000050: b628 4cbe afae 4e3a 2e65 4abe 3cfe 543a
00000060: 23d2 12c1 d48f 8cb2 9dc0 4dc1 90b8 3bb2
00000070: 0ba4 a2c1 01a8 eab1 26a7 22c2 1705 5bb1
00000080: a2d1 10c3 1b3c 94b1 0000 80bf 7a8e 0821
00000090: c9c5 10c3 8308 d531 5c84 22c2 3714 4f31
000000a0: 2e6d a2c1 6b12 0e32 bf5e 4dc1 5ea6 a732
000000b0: 2a70 12c1 989c bc32 d9aa dec0 30c6 cd32
000000c0: 5bfa 13be b936 9d39 91fb 12be 7e08 a239
000000d0: e51b 09be 87c6 9f39 9e4e 01be 72d3 a439
000000e0: 1c13 07be 2535 b639 c986 16be 32f3 cf39
000000f0: a6ee 22be 17f5 dc39 2122 26be 9aa6 e139
00000100: 3737 1bbe faef d339 fd6c 0dbe 954c ca39
00000110: 22a6 08be 6bed c839 f606 0ebe 1a2e d339
00000120: c51c 7ebe 95f6 5cbf b54f 92be 17b9 8c3f
00000130: d141 573f f61c 673f 26c6 7dbe aa66 61bf
00000140: 8c70 90be d6af 8c3f f80a 573f 22d2 6b3f
00000150: fe06 aec0 c588 68b6 bead dc35 dcc9 2abf
00000160: 2545 afb5 cfa8 8134 4348 a13f 0789 2a40
00000170: 9754 3840 731e 3cbf 1548 a13f 1a89 2a40
00000180: 9754 3840 701e 3cbf 21a9 6838 28ac f838
00000190: 079a a3b9 6361 1fb8 0efb 35b7 2857 33b9
000001a0: 1c5b 6938 27b7 f838 a68c a3b9 b4c9 1eb8
000001b0: e5be 33b7 ee5e 33b9 136a 6d3a 67c9 1233
000001c0: a577 c731 6cc9 9bb9 074b d033 f67e 43b2
000001d0: 171c 4ab8 874f 34b9 f5b7 a2b8 16dd bd3a
000001e0: 0145 4ab8 926c 34b9 9dd0 a2b8 82dc bd3a

1.gn.w0 f4 [32, 124]
-0.061833974 0.06935491 -0.10394955 0.106775515 -0.07418958 0.11017274 -0.13480869 0.19814824
-0.22356343 0.37069815 -0.007933712 -0.14442305 -0.15062419 -0.1028116 -0.04638191 -0.06697789
0.12691696 -0.0009994014 0.038142167 0.06718541 0.110888585 -0.006515778 0.07260074 -0.10495393
0.03822513 0.055125147 -0.11288844 0.02196268 0.07784527 -0.02503536 -0.030226601 -0.013962788
-0.096796095 -0.039368153 0.003959824 -0.02356962 0.07498413 0.03351401 0.005520087 0.016004646
0.015782967 -0.0054600453 -0.04400879 -0.07173821 0.03253308 -0.014959013 -0.021916347 -0.0025692165
0.013256151 -0.02928896 0.0019798244 0.08399518 0.053661034 -0.016050993 0.05154596 -0.06764053
0.052401744 -0.15094562 -0.2660122 0.12584735 -0.0065239114 -0.03888543 0.02834273 0.14052115
0.062393527 0.011195407 0.029721478 0.026704751 0.049331773 -0.07190929 0.014570611 -0.12179121
0.01284058 0.3419303 0.020472405 -0.40662655 -0.26756164 -0.44088024 -0.045690313 0.11654922
-0.009322099 0.19251463 0.17260782 -0.0941618 -0.0069480496 -0.042340647 0.06989691 -0.038336385
0.0351432 0.0077068405 0.09420531 0.048600804 -0.003820986 -0.062029798 0.024857359 0.012853737
-0.011124636 -0.034061305 0.18274653 0.019080006 -0.04181691 0.092235945 0.020644978 0.08541028
0.10957334 -0.2775355 -0.026770972 -0.047928937 -0.025126854 0.21866108 0.040028904 -0.0104009835
-0.060708266 -0.013827169 0.056518134 0.043955527 -0.026127204 0.045783497 -0.062101647 0.012447941
-0.0761774 0.13179286 0.013749995 0.085879594 0.13199054 -0.23402779 0.09481888 -0.092772566
0.047235094 0.022787247 0.14840947 0.047132146 0.07994961 0.1548714 -0.05422999 0.14296402
-0.01951401 -0.2140881 -0.06369728 -0.06665432 0.034231044 0.19200155 0.03128315 0.22830616
-0.13042037 0.23941012 -0.0706254 0.24286222 -0.08025199 0.0046177004 0.039490193 -0.041666016
0.090848915 0.100997195 -0.080740795 0.06560392 -0.010526339 -0.02072917 0.01840694 0.0051051145
0.085083455 -0.016808143 -0.027162243 0.10128397 0.005805804 0.08788623 -0.02424105 0.066610575
0.0502964 0.068500675 0.02596003 -0.013231144 -0.02670535 0.010661262 -0.06089678 0.13582791
0.020866724 0.36885363 -0.10334792 0.07353871 -0.030024245 -0.06874837 0.023021135 -0.39713785
-0.0007851358 0.012106505 0.03819015 0.056162525 -0.032809637 0.31678137 -0.052547723 0.05436872
-0.068629295 -0.077101536 -0.09922798 -0.13846324 0.2220793 -0.22660337 -0.041178998 0.08103207
0.18843776 0.24853525 0.084910676 -0.23959045 -0.02128063 -0.466371 -0.5487499 0.10773857
0.05684577 -0.039346956 0.0005145537 0.014459517 -0.048202172 -0.0014499201 -0.009680899 0.055609424
-0.048594616 0.051015366 -0.07156082 0.00631051 0.02665673 0.08219098 0.4618668 -0.10693023
-0.09534476 -0.18387339 0.018840542 0.1946884 -0.17781544 -0.4340372 -0.062643036 0.38694012
0.23616455 0.4384601 -0.0092035225 0.008748511 0.05080172 -0.0936632 -0.0030057558 0.06357914
-0.057796165 0.0064983633 0.0019086913 0.16148017 0.049495142 0.038924355 -0.035315774 -0.060816325
0.0016656882 -0.11149185 0.17723055 -0.10137072 0.17445098 -0.017766805 0.19153187 -0.073354624
00000000: 9f45 7dbd f209 8e3d 80e3 d4bd 1fad da3d
00000010: b5f0 97bd 3fa2 e13d 4a0b 0abe 5fe7 4a3e
00000020: d0ed 64be 26cc bd3e 66fc 01bc a3e3 13be
00000030: 3a3d 1abe e38e d2bd f5fa 3dbd b42b 89bd
00000040: 85f6 013e 59fe 82ba f63a 1c3d 8198 893d
00000050: 8e19 e33d 4f82 d5bb b2af 943d 16f2 d6bd
00000060: f491 1c3d e8ca 613d 0e32 e7bd 14eb b33c
00000070: 576d 9f3d f516 cdbc c79d f7bc 2dc4 64bc
00000080: 083d c6bd 8040 21bd 69c1 813b 1315 c1bc
00000090: 4891 993d fd45 093d d9e1 b43b 2d1c 833c
000000a0: 484b 813c 2eea b2bb 9042 34bd 7ceb 92bd
000000b0: 6841 053d a616 75bc e989 b3bc 4d60 28bb
000000c0: 5430 593c 67ef efbc f1bf 013b aa05 ac3d
000000d0: accb 5b3d 5f7d 83bc db21 533d 1e87 8abd
000000e0: 36a3 563d 7d91 1abe c032 88be 21de 003e
000000f0: 89c6 d5bb 5446 1fbd 032f e83c c7e4 0f3e
00000100: 5b90 7f3d f16c 373c 757a f33c ecc3 da3c
00000110: 1d10 4a3d 2e45 93bd 92b9 6e3c ab6d f9bd
00000120: 4c61 523c 7d11 af3e bfb5 a73c 5b31 d0be
00000130: d7fd 88be 0ebb e1be c425 3bbd 5cb1 ee3d
00000140: b8bb 18bc 8e22 453e 1bc0 303e e7d7 c0bd
00000150: 77ac e3bb 636d 2dbd 1c26 8f3d 9d06 1dbd
00000160: 51f2 0f3d aa89 fc3b b7ee c03d a311 473d
00000170: 8269 7abb f512 7ebd a9a1 cb3c 7b98 523c
00000180: 1b44 36bc de83 0bbd e821 3b3e ac4d 9c3c
00000190: 3548 2bbd 33e6 bc3d a81f a93c 96eb ae3d
000001a0: fd67 e03d 2219 8ebe cc4e dbbc 2251 44bd
000001b0: d5d6 cdbc b1e8 5f3e 59f5 233d e368 2abc
000001c0: 3ba9 78bd 5a8b 62bc 8f7f 673d b60a 343d
000001d0: b808 d6bc 7a87 3b3d 4c5e 7ebd 73f2 4b3c
000001e0: e602 9cbd b5f4 063e a947 613c a4e1 af3d
000001f0: 8728 073e fba4 6fbe 6730 c23d 8bff bdbd
00000200: 9679 413d 52ac ba3c a7f8 173e a30d 413d
00000210: 9fbc a33d 9c96 1e3e 4420 5ebd 2965 123e
00000220: d8db 9fbc e939 5bbe b873 82bd 0f82 88bd
00000230: da35 0c3d 0e9c 443e c322 003d 17c9 693e
00000240: eb8c 05be ed27 753e 0da4 90bd e0b0 783e
00000250: 285b a4bd 1450 973b 78c0 213d fca9 2abd
00000260: ff0e ba3d 9ed7 ce3d 6e5b a5bd 595b 863d
00000270: aa76 2cbc 38d0 a9bc 27ca 963c ce48 a73b
00000280: 3c40 ae3d 3bb1 89bc 5a83 debc f86d cf3d
00000290: 9d3e be3b b2fd b33d 2b95 c6bc 206b 883d
000002a0: 9903 4e3d 154a 8c3d 21aa d43c 71c7 58bc
000002b0: 2ec5 dabc 93ac 2e3c e76e 79bd 7916 0b3e
000002c0: b1f0 aa3c 62da bc3e 13a8 d3bd 779b 963d
000002d0: 68f5 f5bc f2cb 8cbd d296 bc3c a755 cbbe
000002e0: 92d1 4dba 5d5a 463c 466d 1c3d ad0a 663d
000002f0: 6663 06bd 2b31 a23e 483c 57bd bcb1 5e3d
00000300: 848d 8cbd 69e7 9dbd 0a38 cbbd 4fc9 0dbe
00000310: c268 633e b70a 68be 4fab 28bd 24f4 a53d
00000320: d4f5 403e 0680 7e3e a6e5 ad3d 3357 75be
00000330: b754 aebc 2ec8 eebe e07a 0cbf 0aa6 dc3d
00000340: 1cd7 683d 462a 21bd 1de3 063a 9ce7 6c3c
00000350: a46f 45bd 3f0b beba a29c 1ebc b5c6 633d
00000360: 260b 47bd 7df5 503d 7b8e 92bd 65c8 ce3b
00000370: 375f da3c bf53 a83d ce79 ec3e 3dfe dabd
00000380: 1d44 c3bd 4e49 3cbe 7b57 9a3c 655c 473e
00000390: 4015 36be 203a debe fe4a 80bd 041d c63e
000003a0: 1fd5 713e d87d e03e 5fca 16bc ea55 0f3c
000003b0: 7715 503d 7ed2 bfbd 37fc 44bb c835 823d
000003c0: acbb 6cbd 39f0 d43b 0d2d fa3a 0f5b 253e
000003d0: 6bbb 4a3d 256f 1f3d 46a7 10bd 8a1a 79bd
000003e0: 3953 da3a d755 e4bd ed7b 353e 749b cfbd
000003f0: 47a3 323e b18b 91bc ee20 443e f33a 96bd

1.gn.w1 f4 [32, 32]
-0.16341104 0.28596833 0.042714477 0.03780129 -0.028657535 0.06381622 -0.007184895 0.039349843
0.12947217 0.012929588 0.09430801 0.10905051 0.013961586 0.19742097 -0.035117704 0.18762657
-0.0915095 -0.20024507 0.09720961 -0.031267747 -0.14113146 -0.036499508 -0.053361636 0.025923831
-0.4105436 0.010643531 0.07569009 -0.07965392 -0.022670304 -0.020271694 0.018922158 -0.25170514
0.20030804 -0.1714436 0.019230189 -0.08122097 -0.035752773 -0.074621774 0.0054959017 0.026516989
0.034243766 0.0010347926 -0.017282002 -0.04931246 0.037893802 -0.17216752 -0.036113143 -0.18094392
0.047859702 0.090724625 -0.18771671 -0.030491292 -0.031821623 -0.07989139 -0.08375124 -0.14713584
0.13579997 -0.037433516 0.03250415 0.08181459 -0.11538968 -0.14976005 -0.16256563 0.19188848
0.21601611 0.011860585 0.03251424 0.31201965 -0.05554827 0.21989597 0.020928284 -0.093615
0.16598758 -0.0837317 0.04442075 0.2880009 -0.049803883 -0.18036757 0.04033881 -0.20330825
0.14581816 0.08673623 -0.21449588 0.061249513 0.027282333 0.040186197 0.15284082 -0.13109204
0.19661455 -0.11558405 0.3833601 -0.10481821 0.034278795 0.0067417123 -0.20539245 -0.0665875
0.049993847 -0.1094623 -0.7738149 -0.26831815 0.29707062 -0.60108167 0.081249274 0.12121964
0.014387473 -0.021852506 -0.11601082 0.08552507 0.026210448 -0.13314764 0.028547626 -0.02607799
0.66343457 0.30386364 -0.031455256 -0.49707606 -0.051583372 -0.046434764 0.0491418 -0.0435437
0.10654974 0.49126 0.0795564 -0.06903447 -0.4130702 0.03428159 0.040759403 0.1533652
0.22701544 -0.037126854 0.268828 0.009865353 -0.095274806 0.065754645 -0.033696827 0.042881526
0.1116441 0.035281334 -0.19266094 0.4376399 -0.044402987 -0.38390672 -0.03702048 -0.5123259
-0.099855326 0.09695123 -0.4288833 0.17037201 0.016364133 0.1440519 -0.10373335 -0.20992525
0.26330146 0.051753275 0.26143262 -0.069703914 -0.09567446 -0.66933084 -0.46502155 0.24448714
-0.04118089 0.061050523 0.3091391 0.33691034 0.0017199024 0.48618343 -0.032479912 -0.044509333
0.064661585 0.05303904 -0.14129381 -0.2076082 0.014706359 -0.34823245 -0.11593288 -0.46410573
-0.48003182 -0.23080409 -0.35671034 0.27639902 -0.13582553 -0.08389356 0.10412793 -0.30414632
-0.014457864 0.018864376 -0.2862662 -0.026326593 0.0021983122 -0.25813866 -0.08984807 0.08774938
-0.09046514 0.23502366 0.07055409 -0.10890779 -0.05493449 0.18665634 -0.053780295 -0.14950693
0.060304288 0.054606836 -0.08914041 -0.023328995 -0.111275345 0.28102255 -0.13776697 0.14860788
0.06481436 -0.30329832 0.15481748 0.039357316 0.0911983 0.005923178 -0.0864941 0.1897451
-0.18667215 -0.06722351 0.012184017 0.011851005 -0.121432774 0.105955586 0.029102927 -0.41548353
-0.2555057 0.530675 0.089637496 -0.0045052962 -0.2762451 -0.056832645 -0.1527665 0.25038582
0.132213 -0.12455284 0.7057965 0.11025985 0.189201 0.21894754 0.51174676 0.22539012
-0.091374226 -0.052320015 -0.11221946 0.028203571 0.48655975 -0.033365894 0.12075443 0.38245112
-0.3346493 -0.021369878 0.16760318 -0.05911734 0.0079903575 0.07945335 0.06689847 0.07646519
00000000: 3955 27be 716a 923e 60f5 2e3d 87d5 1a3d
00000010: 35c3 eabc 14b2 823d 456f ebbb 4d2d 213d
00000020: 5a94 043e 9fd6 533c 8f24 c13d e055 df3d
00000030: 23bf 643c b928 4a3e 95d7 0fbd 2e21 403e
00000040: 5569 bbbd 0b0d 4dbe d515 c73d 9c12 00bd
00000050: c484 10be 8280 15bd bb91 5abd 375e d43c
00000060: c532 d2be 3462 2e3c 6803 9b3d 9821 a3bd
00000070: 13b7 b9bc d310 a6bc a402 9b3c 7fdf 80be
00000080: 8d1d 4d3e e98e 2fbe a188 9d3c 2e57 a6bd
00000090: 8071 12bd 4dd3 98bd f716 b43b 283a d93c
000000a0: 3143 0c3d e1a1 873a fc92 8dbc ddfb 49bd
000000b0: 8836 1b3d af4c 30be 60eb 13bd 5d49 39be
000000c0: 8908 443d d5cd b93d cf38 40be e0c8 f9bc
000000d0: 6457 02bd 199e a3bd c585 abbd c7aa 16be
000000e0: 260f 0b3e e353 19bd 1223 053d 688e a73d
000000f0: 6d51 ecbd b35a 19be 9b77 26be 6a7e 443e
00000100: 5433 5d3e e652 423c a72d 053d 0ac1 9f3e
00000110: 9586 63bd 692c 613e cb71 ab3c 39b9 bfbd
00000120: a6f8 293e 877b abbd 88f2 353d db74 933e
00000130: 28ff 4bbd 47b2 38be 4f3a 253d 0a30 50be
00000140: 5b51 153e c4a2 b13d cfa4 5bbe c5e0 7a3d
00000150: 337f df3c 489a 243d 4e82 1c3e fe3c 06be
00000160: 5355 493e 55b7 ecbd c647 c43e eeaa d6bd
00000170: ec67 0c3d 95e9 dc3b 6652 52be 075f 88bd
00000180: 59c6 4c3d c52d e0bd bc18 46bf ff60 89be
00000190: a419 983e 7de0 19bf 0566 a63d 0142 f83d
000001a0: 70b9 6b3c 0704 b3bc 1597 edbd c527 af3d
000001b0: 4bb7 d63c db57 08be b6dc e93c 82a1 d5bc
000001c0: d9d6 293f 0494 9b3e 3ad7 00bd c180 febe
000001d0: 1649 53bd 6132 3ebd e948 493d e15a 32bd
000001e0: c036 da3d 6e86 fb3e 77ee a23d f261 8dbd
000001f0: f07d d3be da6a 0c3d 55f3 263d c40b 1d3e
00000200: bc76 683e 5412 18bd d3a3 893e 4aa2 213c
00000210: 701f c3bd 5faa 863d af05 0abd 8aa4 2f3d
00000220: a9a5 e43d 2983 103d e948 45be 5612 e03e
00000230: e8df 35bd 6c8f c4be c9a2 17bd ca27 03bf
00000240: f380 ccbd 5e8e c63d 9896 dbbe 0076 2e3e
00000250: 130e 863c 5782 133e 2772 d4bd a5f6 56be
00000260: 73cf 863e 3efb 533d 7fda 853e edc0 8ebd
00000270: f9f0 c3bd 4459 2bbf 4e17 eebe d65a 7a3e
00000280: 4bad 28bd 1d10 7a3d 7b47 9e3e 837f ac3e
00000290: 596e e13a 09ed f83e a809 05bd 6b4f 36bd
000002a0: 4b6d 843d 773f 593d 53af 10be 3e97 54be
000002b0: f1f2 703c 864b b2be 386e edbd 449f edbe
000002c0: bbc6 f5be e857 6cbe bda2 b6be 2c84 8d3e
000002d0: d915 0bbe 63d0 abbd 0641 d53d 11b9 9bbe
000002e0: ade0 6cbc 7789 9a3c 7c91 92be deaa d7bc
000002f0: 8f11 103b c02a 84be 4402 b8bd f2b5 b33d
00000300: ca45 b9bd 0baa 703e aa7e 903d 0c0b dfbd
00000310: fd02 61bd d722 3f3e ba48 5cbd 5818 19be
00000320: a101 773d 6bab 5f3d 3f8f b6bd 731c bfbc
00000330: 54e4 e3bd 30e2 8f3e c912 0dbe aa2c 183e
00000340: 64bd 843d eb49 9bbe 7988 1e3e 2335 213d
00000350: 2dc6 ba3d 3817 c23b d223 b1bd 8a4c 423e
00000360: fc26 3fbe 7bac 89bd 799f 473c b82a 423c
00000370: bfb1 f8bd 3eff d83d 4369 ee3c 42ba d4be
00000380: a5d1 82be 51da 073f dd93 b73d 2aa1 93bb
00000390: ff6f 8dbe 59c9 68bd d26e 1cbe 9232 803e
000003a0: d862 073e 8f15 ffbd 14af 343f ebcf e13d
000003b0: e8bd 413e c933 603e d601 033f abcc 663e
000003c0: 6922 bbbd 834d 56bd 51d3 e5bd 2d0b e73c
000003d0: 5c1e f93e adaa 08bd 194e f73d a2d0 c33e
000003e0: 2757 abbe e20f afbc 2ba0 2b3e 0625 72bd
000003f0: fde9 023c 70b8 a23d 1102 893d c899 9c3d

1.gn.w2 f4 [4, 32]
0.10207336 -0.16228867 -0.0035382477 -0.08135159 0.22874638 -0.27547026 -0.001263726 0.03521887
0.14791124 0.27548635 -0.25414678 0.07092166 0.26186064 0.14144516 0.008183387 -0.15369222
-0.2927346 -0.025632903 0.27648884 -0.16370766 -0.00378566 -0.007235844 -0.05529159 -0.1660729
-0.22301628 -0.09506692 0.16238125 0.05707391 -0.04088934 0.10907928 0.12411898 0.23303334
-0.00041525604 0.016006747 -0.0001626516 0.086856484 0.23453845 -0.36054963 -0.10715218 0.03455312
0.08997568 0.27724865 -0.14548574 -0.06400601 0.26892173 0.13015318 0.12602702 -0.15574121
-0.29011327 -0.025842527 0.27737644 -0.16801429 -0.0386031 -0.13309821 -0.040706072 0.003545081
-0.036761098 -0.2096765 0.0008702839 0.19765455 -0.15400787 -0.019642835 0.11707065 0.0790031
0.00074901053 -0.007365845 -0.010976071 0.0848915 0.22517617 -0.27151507 -0.077545084 -0.08068859
0.21785966 0.164512 -0.2514746 0.067014664 0.25903484 -0.0701009 0.012453275 -0.16251136
-0.40384904 0.06776423 0.16349243 -0.2715719 0.103181265 -0.12562114 -0.04856292 0.0008833949
-0.038601797 -0.17533602 0.16581881 0.058389965 -0.043124806 0.1041081 -0.039934613 0.23461232
0.09525738 -0.1265851 -0.121869534 0.08997263 0.12583037 -0.3387215 -0.009842748 0.0326391
0.21810885 0.27686638 -0.1487829 0.01483379 0.15571547 -0.07977636 0.12459699 -0.25950742
-0.29207692 0.07018389 0.27932268 -0.2687597 0.10601121 -0.023811666 -0.15358086 0.0041712597
-0.03693108 -0.116954476 0.16872376 0.19706197 -0.090073735 0.025402175 -0.050385285 0.23617797
00000000: d60b d13d 002f 26be f2e1 67bb aa9b a6bd
00000010: 7e3c 6a3e 700a 8dbe 9ca3 a5ba a941 103d
00000020: 0b76 173e 8c0c 8d3e 871f 82be 603f 913d
00000030: 9912 863e 00d7 103e 9d13 063c 7e61 1dbe
00000040: 4fe1 95be 18fc d1bc f28f 8d3e fba2 27be
00000050: d618 78bb a91a edbb 6f79 62bd 040f 2abe
00000060: 615e 64be 72b2 c2bd 4547 263e 55c6 693d
00000070: 957b 27bd f564 df3d 1732 fe3d 4ba0 6e3e
00000080: b9b6 d9b9 9520 833c 758d 2ab9 d0e1 b13d
00000090: d92a 703e f699 b8be 9a72 dbbd 9387 0d3d
000000a0: 2b45 b83d 89f3 8d3e 37fa 14be 9515 83bd
000000b0: 1cb0 893e e046 053e 3a0d 013e a07a 1fbe
000000c0: ba89 94be b5b3 d3bc 4904 8e3e f00b 2cbe
000000d0: 491e 1ebd e64a 08be 69bb 26bd 9754 683b
000000e0: ce92 16bd 70b5 56be c423 643a f465 4a3e
000000f0: 3db4 1dbe 03ea a0bc bdc2 ef3d 61cc a13d
00000100: 3f59 443a 305d f1bb fad4 33bc 98db ad3d
00000110: 9594 663e 0604 8bbe f5cf 9ebd 0f40 a5bd
00000120: 9a16 5f3e d575 283e 47c1 80be fc3e 893d
00000130: 37a0 843e 1091 8fbd d208 4c3c 6169 26be
00000140: 4dc5 cebe f9c7 8a3d 8f6a 273e 790b 8bbe
00000150: b350 d33d d4a2 00be eae9 46bd a193 673a
00000160: eb1c 1ebd 498b 33be 68cc 293e 512a 6f3d
00000170: a3a3 30bd a136 d53d 7a92 23bd 363e 703e
00000180: 4d16 c33d 869f 01be bc96 f9bd 9243 b83d
00000190: add9 003e e86c adbe 7a43 21bc 94b0 053d
000001a0: ed57 5f3e 6ec1 8d3e 8b5a 18be 6d09 733c
000001b0: e073 1f3e ca61 a3bd b52c ff3d 28de 84be
000001c0: 1b8b 95be 92bc 8f3d 6203 8f3e df9a 89be
000001d0: 681c d93d af10 c3bc 4d44 1dbe 10af 883b
000001e0: 0b45 17bd d485 efbd ecc5 2c3e 9dca 493e
000001f0: 9478 b8bd 3918 d03c cd60 4ebd a3d8 713e

1.gn.b0 f4 [32, 1]
-0.67112553 -0.380771 -0.22678128 -0.24442752 -0.21957327 -0.3942442 -0.3020718 -0.41014835
-0.20956929 -0.22320671 -0.026155313 0.00031715923 -0.3852623 -0.44950765 -0.38453326 -0.39095232
-0.4066166 -0.531239 -0.24195786 -0.18353678 -0.10759529 -0.23340988 -0.15384795 -0.15249406
-0.16493458 -0.52303785 -0.15334035 -0.20492405 -0.08091777 -0.65511525 -0.8169977 -0.2897002
00000000: e2ce 2bbf 6bf4 c2be 5a39 68be 354b 7abe
00000010: d1d7 60be 60da c9be 28a9 9abe f7fe d1be
00000020: 5599 56be 4d90 64be ab43 d6bc 6448 a639
00000030: 1a41 c5be de25 e6be 8be1 c4be e72a c8be
00000040: 0d30 d0be 47ff 07bf cdc3 77be 11f1 3bbe
00000050: eb5a dcbd 0003 6fbe 518a 1dbe 6727 1cbe
00000060: 9ce4 28be cfe5 05bf 4105 1dbe 9cd7 51be
00000070: 37b8 a5bd a2b5 27bf c326 51bf 9653 94be

1.gn.b1 f4 [32, 1]
-0.17158964 0.00693497 0.53287965 0.29600254 0.46643353 0.008200636 -0.22923718 0.4129628
0.16587433 0.24681942 -0.19355595 0.13381475 0.72577536 -0.025626533 -0.21931376 0.5278951
0.37082896 -0.01639352 0.3804648 -0.03119544 -0.053018246 -0.17022786 0.30740276 0.25911108
0.6141997 -0.099768244 0.26455605 -0.17366081 -0.07707804 0.09292079 -0.038663823 0.77677405
00000000: 32b5 2fbe bf3e e33b cd6a 083f a58d 973e
00000010: 60d0 ee3e f65b 063c 27bd 6abe dc6f d33e
00000020: f6da 293e 3bbe 7c3e 8833 46be bc06 093e
00000030: 6acc 393f bcee d1bc c993 60be 2224 073f
00000040: 4bdd bd3e b44b 86bc 48cc c23e 948d ffbc
00000050: a929 59bd 3650 2ebe e563 9d3e 35aa 843e
00000060: 313c 1d3f 4b53 ccbd e473 873e 24d4 31be
00000070: 17db 9dbd 414d be3d f55d 1ebd aada 463f

1.gn.b2 f4 [4, 1]
-0.14021829 -0.27664003 0.2326303 0.048520412
00000000: 6295 0fbe c3a3 8dbe a336 6e3e 57bd 463d

1.mpn.w0 f4 [4, 128, 124]
0.00045813792 -0.004692799 0.016710915 -0.007661399 0.016538547 0.009781981 0.007850376 0.057766
0.02419782 0.12893009 -0.017363984 -0.01127308 0.020720571 0.002781645 0.019427197 -0.01593841
0.014480061 -0.027820095 0.019846888 -0.038010925 0.016049506 -0.03994431 0.017750211 -0.059863042
-0.010955402 -0.05423982 -0.013248056 -0.04583848 0.01392173 0.009624535 0.030479051 0.086877964
0.0045486665 0.07448353 -0.0022294316 -0.005910599 0.103918746 -0.15217629 0.07983193 -0.10159958
0.0965877 -0.031660322 0.107279986 0.03534529 0.11052145 0.04879709 0.09943911 0.036924135
-0.01202731 -0.0030128793 -0.0012812446 -0.0032005275 -0.008315606 0.0025845405 -0.020888101 -0.008115369
-0.0024358458 0.00076419 0.058641 0.09377815 0.0061926255 -0.009269293 -0.008226224 0.0015128602
0.003924524 0.021631567 0.013078606 -0.022469347 -0.0072652665 -3.483738e-05 0.014425678 -0.014985671
-0.017207675 0.04177818 -0.10359364 0.032453686 0.07657425 -0.013726317 -0.008971571 -0.03162271
0.030548738 -0.003640599 -0.014482952 0.0062677697 0.14000766 0.026401794 0.0124981655 -0.069912225
0.00042321315 -0.01491409 -0.054251935 0.13967067 -0.010923243 -0.034389567 -0.0072496957 0.038154352
-0.035088565 0.022319075 -0.061259802 -0.04001799 0.0019363435 0.047352467 0.021772536 0.04794962
-0.009316378 0.009914379 -0.012003074 -0.018382518 -0.020986276 -0.04266485 -0.002626902 -0.0240085
0.02755647 -0.05454311 0.0250304 -0.026603011 -0.03442798 -0.015924845 0.03370341 0.02694396
0.04337198 0.012298012 -0.051182996 -0.030942898 -0.02368006 0.0044268174 -0.017037638 -0.0066272873
-0.02150423 -0.011433671 -0.033632312 0.04206408 -0.013110919 0.058798198 0.007650805 0.0033254034
-0.023141738 -0.06388246 -0.015873918 -0.021118077 -0.0063602845 -0.0010772895 -0.018598838 0.004989741
-0.04504515 -0.013630177 -0.027732018 0.00089122204 0.008244446 -0.004494464 -0.01595586 0.0028777097
-0.006398012 0.014437581 0.0044759465 -0.010629579 -0.013654109 -0.02305509 0.0021808736 0.0031478738
-0.10625614 0.05917262 -0.10535855 0.050615076 -0.10779595 0.031992614 -0.08685277 0.024992326
-0.052859195 0.011404984 -0.06868261 0.0026146625 -0.004020076 -0.04127775 0.005276989 -0.027289476
-0.0005863694 -0.010560147 0.0067666005 0.030006034 0.017673343 0.012338044 -0.005441537 0.017256767
-0.026322665 -0.04294772 -0.012100862 -0.022449993 -0.02422874 -0.015910069 -0.04894911 0.016310267
-0.022911806 0.00057950924 -0.0319762 0.008832335 -0.039402097 0.0465242 0.08187678 -0.05713447
-0.15190107 -0.019118177 0.012256002 0.023661394 0.21289974 -0.03652356 0.025032002 -0.022315042
0.1444986 0.014447671 -0.05506809 -0.028289272 -0.06628597 0.04438759 -0.005880236 0.3575895
0.16527407 0.029050987 0.00044219766 0.07302888 0.04257963 -0.0013559147 -0.016483143 0.04243792
0.0032535489 0.009292707 -0.025594695 -0.008479505 -0.0119738635 -0.027389085 -0.025958518 0.019011278
0.019606607 -0.012654836 0.0021684184 -0.05404655 0.008536397 -0.028153444 -0.01536556 -0.009605718
-0.004569163 -0.021500843 -0.03511558 -0.014357159 0.0039829905 -0.0055725756 -0.007872538 0.03325463
0.0057745366 0.0097972695 -0.0050334125 -0.004956726 -0.0022329346 0.011384626 -0.006480582 0.026732814
00000000: 3b32 f039 0dc6 99bb 54e5 883c 790c fbbb
00000010: d97b 873c 9a44 203c dd9e 003c 0b9c 6c3d
00000020: 823a c63c 4006 043e ea3e 8ebc b9b2 38bc
00000030: 30be a93c 424c 363b c925 9f3c 4591 82bc
00000040: c73d 6d3c f8e6 e3bc f195 a23c 58b1 1bbd
00000050: 417a 833c a59c 23bd e468 913c f332 75bd
00000060: 497e 33bc 932a 5ebd 600e 59bc 21c1 3bbd
00000070: f817 643c 3ab0 1d3c 34af f93c 13ed b13d
00000080: fb0c 953b d28a 983d a81b 12bb b3ad c1bb
00000090: 5ad3 d43d 1ad4 1bbe ec7e a33d 7113 d0bd
000000a0: c6cf c53d 41ae 01bd 9cb5 db3d 39c6 103d
000000b0: 1259 e23d 75df 473d bba6 cb3d c33d 173d
000000c0: 320e 45bc ba73 45bb 6fef a7ba f1bf 51bb
000000d0: 2e3e 08bc 6561 293b 861d abbc 53f6 04bc
000000e0: b6a2 1fbb ec53 483a 8c31 703d c20e c03d
000000f0: 82eb ca3b 3cde 17bc 49c7 06bc 2a4b c63a
00000100: 4b99 803b af34 b13c a647 563c a311 b8bc
00000110: 7911 eebb 5a1e 12b8 ae59 6c3c 7686 75bc
00000120: 1cf7 8cbc 991f 2b3d e728 d4bd 28ee 043d
00000130: f6d2 9c3d 59e4 60bc 7ffd 12bc d186 01bd
00000140: 5941 fa3c 1e97 6ebb e749 6dbc dd61 cd3b
00000150: 2b5e 0f3e 9348 d83c 1bc5 4c3c 242e 8fbd
00000160: b5e2 dd39 3a5a 74bc 4737 5ebd d405 0f3e
00000170: 67f7 32bc 13dc 0cbd db8e edbb bd47 1c3d
00000180: 07b9 0fbd 7ed6 b63c 8feb 7abd e7e9 23bd
00000190: e8cc fd3a a9f4 413d 515c b23c d266 443d
000001a0: b9a3 18bc eb6f 223c 8ba8 44bc ef96 96bc
000001b0: 69eb abbc 56c1 2ebd 1a28 2cbb 79ad c4bc
000001c0: 1bbe e13c 9968 5fbd 8e0c cd3c 8fee d9bc
000001d0: 5b04 0dbd d274 82bc 960c 0a3d 94b9 dc3c
000001e0: d1a6 313d 9a7d 493c 43a5 51bd f67b fdbc
000001f0: affc c1bc d60e 913b 8492 8bbc b729 d9bb
00000200: a429 b0bc 4b54 3bbc 09c2 09bd 624b 2c3d
00000210: 2ecf 56bc 61d6 703d 9bb3 fa3b 03ef 593b
00000220: be93 bdbc cfd4 82bd 050a 82bc d1ff acbc
00000230: ef69 d0bb d633 8dba 975c 98bc fb80 a33b
00000240: 4381 38bd 1b51 5fbc 422e e3bc e6a0 693a
00000250: b613 073c 4c46 93bb ddb5 82bc f597 3c3b
00000260: 6aa6 d1bb 9b8b 6c3c f6aa 923b b027 2ebc
00000270: 7cb5 5fbc 07de bcbc fdec 0e3b 8f4c 4e3b
00000280: d29c d9bd fd5e 723d 39c6 d7bd c151 4f3d
00000290: 1fc4 dcbd b00a 033d dddf b1bd b5bc cc3c
000002a0: e282 58bd f8db 3a3c 78a9 8cbd c25a 2b3b
000002b0: d7ba 83bb dc12 29bd 98ea ac3b 2e8e dfbc
000002c0: 96b6 19ba 7804 2dbc 5cba dd3b 37cf f53c
000002d0: b0c7 903c 8225 4a3c ec4e b2bb 105e 8d3c
000002e0: a1a2 d7bc f3e9 2fbd b242 46bc 0ce9 b7bc
000002f0: 5a7b c6bc d555 82bc dd7e 48bd 1c9d 853c
00000300: 8ab1 bbbc 35ea 173a 7af9 02bd 7fb5 103c
00000310: 1864 21bd 2990 3e3d 03af a73d d605 6abd
00000320: f48b 1bbe b99d 9cbc 66cd 483c 8ad5 c13c
00000330: 6402 5a3e ba99 15bd ea0f cd3c 09ce b6bc
00000340: 71f7 133e edb5 6c3c 148f 61bd e7be e7bc
00000350: f0c0 87bd c3cf 353d ffae c0bb f915 b73e
00000360: 9b3d 293e 56fc ed3c c4d6 e739 2a90 953d
00000370: fa67 2e3d f3b8 b1ba a807 87bc 62d3 2d3d
00000380: 7e39 553b 7040 183c f7ab d1bc 9fed 0abc
00000390: 062e 44bc 135f e0bc f5a6 d4bc 8abd 9b3c
000003a0: 099e a03c 3b56 4fbc 061c 0e3b ea5f 5dbd
000003b0: 3edc 0b3c 0da2 e6bc d4bf 7bbc 4d61 1dbc
000003c0: ebb8 95bb 8922 b0bc 5bd5 0fbd 4a3a 6bbc
000003d0: bf83 823b 279a b6bb d1fb 00bc 0236 083d
000003e0: 5338 bd3b ba84 203c 53ef a4bb 086c a2bb
000003f0: 6d56 12bb 9586 3a3c 105b d4bb c6fe da3c

1.mpn.w1 f4 [4, 128, 128]
0.01138588 0.07480056 -0.004687828 0.026580492 0.009226512 0.00597822 0.035294175 0.025165595
0.023654938 0.02538492 -0.029098466 0.0027635007 -0.056648683 0.0011591136 0.011862393 0.016027894
0.02776209 -0.008217119 0.0067485115 -0.11339419 0.042920493 0.04893794 -0.0008212172 0.013610692
-0.0015575702 0.004513663 0.08030807 -0.045281705 0.04321279 0.027778817 0.0009276075 -0.016671322
-0.040126637 -0.074904524 0.010400563 -0.004506856 0.06257364 -0.014265336 -0.019591438 0.036152076
-0.01483871 -0.022728592 -0.04282925 -0.02072429 -0.036488306 -0.11646291 0.042691898 -0.0017093134
0.072764926 -0.19170655 0.04784318 0.04869303 0.011022016 0.0024798485 -0.010573027 0.028331371
0.008282793 -0.006188451 0.030030956 0.020288723 -0.014969039 0.0048651043 0.05948394 -0.06433123
-0.09387534 0.085563205 0.019968666 0.010989143 -0.036142875 -0.09159793 0.005756347 -0.043253113
-0.07818251 -0.008633498 0.015046511 0.00805283 -0.016769188 -0.0015878596 0.03575524 0.011841721
0.077037014 0.015140781 0.07228837 -0.029060401 0.0066073104 -0.07841177 -0.02214404 -0.0040589906
-0.025575407 0.04498119 -0.046247464 0.018897263 -0.019139394 -0.094058685 0.04914998 0.12397075
-0.011696381 0.039434064 -0.018388856 0.085248515 0.007953717 -0.06142124 -0.023516066 -0.0071763587
-0.010576487 -0.017334005 -0.029465469 -0.032885145 0.08222692 -0.066273555 0.06951162 0.06290627
0.009395904 0.020552924 0.023299202 0.0324763 0.020927629 0.021949552 0.008274879 0.014346065
0.019208625 -0.006501545 0.02613357 -0.07356177 0.0031407296 -0.025571307 0.035676114 0.013688434
0.026823957 0.056650538 -0.023428118 0.05279856 -0.018644547 -0.02002782 0.012340954 -0.0054727397
-0.08077295 0.0120181665 0.10862595 -0.08510191 -0.048070982 -0.027619377 -0.037837066 0.003275069
-0.015247474 0.0060339216 0.020818703 -0.11977866 -0.004893092 0.0816759 -0.07231728 -0.21320014
-0.0120279705 -0.18289384 -0.0720543 0.023485424 0.006574511 -0.22995648 -0.09251341 -0.031253844
0.005049636 0.12205152 -0.029359944 0.088898815 -0.08377279 0.0050553866 -0.014791911 -0.042781994
0.11809923 -0.025334528 -0.039139062 0.022479622 0.021997219 -0.051807903 -0.0034825741 0.051272903
0.008200065 0.09439329 -0.033017807 0.003132326 -0.097968005 -0.018955717 0.0023905393 -0.046663973
-0.057555564 0.036540072 0.03902045 -0.05763888 0.03095498 0.036834214 -0.030074047 -0.041133408
-0.0064118346 0.04443426 0.021696838 -0.029416336 0.030033516 0.11343505 -0.06586727 0.07763314
0.026754612 0.020136168 -0.033836413 0.02042318 0.122404516 -0.06690509 -0.08487822 0.077454284
0.004775122 0.10146293 -0.010353304 0.078559704 0.009372214 0.1528385 0.012235934 -0.009771542
0.030262887 0.04409808 0.08267548 -0.011033083 0.057429444 -0.07164881 -0.052876532 -0.05166188
-0.04178237 0.06587274 0.065843 0.14381005 -0.17913972 -0.032308098 0.16932474 0.0027992101
0.014298395 -0.012566219 0.026316233 0.07194173 0.12957269 0.012661762 0.09943476 0.0014142735
0.013454528 -0.09005299 -0.02761921 -0.014330002 -0.0074709672 0.05958696 -0.033770308 -0.06721624
0.063062966 0.008563636 0.10866025 -0.06525646 0.0040246854 0.043841038 -0.084367536 -0.10305729
00000000: d88b 3a3c 0931 993d 5a9c 99bb 55bf d93c
00000010: cc2a 173c f2e4 c33b a090 103d 1428 ce3c
00000020: 00c8 c13c 09f4 cf3c e85f eebc d91b 353b
00000030: 7308 68bd 66ed 973a 7b5a 423c ee4c 833c
00000040: 536d e33c 18a1 06bc 9e22 dd3b 373b e8bd
00000050: 66cd 2f3d 2673 483d f446 57ba 61ff 5e3c
00000060: 6227 ccba 59e7 933b 8f78 a43d 4f79 39bd
00000070: e5ff 303d 6790 e33c b02a 733a 4c92 88bc
00000080: d45b 24bd 8b67 99bd 1f67 2a3c 40ae 93bb
00000090: 9c26 803d 28b9 69bc 397e a0bc 3314 143d
000000a0: 101e 73bc 5031 babc b96d 2fbd fcc5 a9bc
000000b0: c374 15bd 1b84 eebd b3dd 2e3d 0a0b e0ba
000000c0: c705 953d b94e 44be 36f7 433d 5872 473d
000000d0: b095 343c f484 223b 7d3a 2dbc 3117 e83c
000000e0: 8db4 073c 7dc8 cabb 7b03 f63c 8934 a63c
000000f0: b340 75bc 746b 9f3b 6fa5 733d 18c0 83bd
00000100: b741 c0bd c33b af3d 5495 a33c ce0b 343c
00000110: 8d0a 14bd b297 bbbd bd9f bc3b 2d2a 31bd
00000120: 271e a0bd 8473 0dbc a485 763c 04f0 033c
00000130: 895f 89bc ba1f d0ba 1674 123d c703 423c
00000140: 95c5 9d3d 0a11 783c ed0b 943d 1410 eebc
00000150: 2382 d83b 5a96 a0bd 6b67 b5bc 4801 85bb
00000160: 8483 d1bc 323e 383d fb6d 3dbd 6fce 9a3c
00000170: 38ca 9cbc d7a1 c0bd 7d51 493d 60e4 fd3d
00000180: 2da2 3fbc 9d85 213d 3aa4 96bc c696 ae3d
00000190: 4f50 023c d794 7bbd c4a4 c0bc a927 ebbb
000001a0: 0049 2dbc 0b00 8ebc 9161 f1bc 93b2 06bd
000001b0: 9666 a83d 6eba 87bd 1c5c 8e3d 01d5 803d
000001c0: 47f1 193c 9b5e a83c f8dd be3c de05 053d
000001d0: 6b70 ab3c 8ccf b33c 5c93 073c c20b 6b3c
000001e0: 685b 9d3c ea0a d5bb 1216 d63c 8ea7 96bd
000001f0: b3d4 4d3b eb7a d1bc 1e21 123d 7445 603c
00000200: eabd db3c 650a 683d 53ec bfbc 4e43 583d
00000210: 73bc 98bc 6211 a4bc b631 4a3c ab54 b3bb
00000220: 4a6c a5bd d8e7 443c 4877 de3d e949 aebd
00000230: 14e6 44bd 0842 e2bc 0afb 1abd 8aa2 563b
00000240: 8bd0 79bc 34b8 c53b fc8b aa3c 844e f5bd
00000250: 3b56 a0bb b245 a73d 151b 94bd 2351 5abe
00000260: f710 45bc 8648 3bbe 3491 93bd 8164 c03c
00000270: ff6e d73b b679 6bbe ac77 bdbd 0804 00bd
00000280: 6b77 a53b 26f6 f93d 4484 f0bc 9510 b63d
00000290: 1291 abbd a8a7 a53b c559 72bc 2c3c 2fbd
000002a0: 02de f13d 5b8a cfbc 4850 20bd 2f27 b83c
000002b0: 8333 b43c 8634 54bd e63b 64bb 8903 523d
000002c0: 9159 063c 4551 c13d ae3d 07bd b647 4d3b
000002d0: 73a3 c8bd 0549 9bbc 98aa 1c3b b922 3fbd
000002e0: 62bf 6bbd 0bab 153d e8d3 1f3d bf16 6cbd
000002f0: 4c95 fd3c 79df 163d d95d f6bc 817b 28bd
00000300: 5e1a d2bb b300 363d 91bd b13c 87fa f0bc
00000310: d908 f63c a350 e83d 6be5 86bd 20fe 9e3d
00000320: 7d2c db3c 9bf4 a43c 0d98 0abd 834e a73c
00000330: 38af fa3d 8905 89bd a2d4 adbd 5aa0 9e3d
00000340: a078 9c3b cccb cf3d e8a0 29bc e9e3 a03d
00000350: ea8d 193c b281 1c3e 3a79 483c d118 20bc
00000360: e0e9 f73c 30a0 343d c351 a93d 1bc4 34bc
00000370: 233b 6b3d 9cbc 92bd 1095 58bd 689b 53bd
00000380: fe23 2bbd 49e8 863d b2d8 863d f142 133e
00000390: 6770 37be 7f55 04bd 7763 2d3e f472 373b
000003a0: d143 6a3c 8be2 4dbc 2495 d73c 3056 933d
000003b0: b4ae 043e 4773 4f3c 74a4 cb3d 255f b93a
000003c0: 6170 5c3c b46d b8bd ae41 e2bc 62c8 6abc
000003d0: 04cf f4bb 7511 743d bc52 0abd aba8 89bd
000003e0: 2827 813d 7e4e 0c3c 4489 de3d 2ea5 85bd
000003f0: 82e1 833b a992 333d e3c8 acbd b30f d3bd

1.mpn.w2 f4 [4, 91, 128]
0.022213347 0.003764816 -0.0003563153 -0.0022085798 0.016415058 -0.005098093 -0.016783789 -0.019879173
-0.00081131136 0.0050959466 0.00010873726 -0.006496678 -0.02071564 0.0039004 -0.0054718126 -0.022026308
-0.020550735 0.02522186 -0.024563793 0.020256057 0.005700847 0.007935123 0.016704991 -0.020764083
0.005845916 0.0098428475 -0.0023517683 0.008848883 0.010009867 -0.010108464 0.013510624 -0.0008994086
-0.013397934 -0.021853305 0.0028429194 0.035347506 -0.03392198 0.00024767348 -0.01460965 -0.022587664
-0.0052050566 0.0115771685 0.0056527336 -0.015077649 -0.00044768947 -0.038277093 0.00030703112 -0.01542879
-0.0019026621 0.00030787924 0.028839463 0.005402648 -0.009999062 -0.019607956 0.022658125 0.04357088
-0.00643117 -0.024979705 -0.015926601 -0.025219912 -0.012242946 0.015676906 0.013426706 -0.02572018
-0.011205143 -0.044084255 0.009819323 0.014791814 0.011669723 0.00415071 -0.010562552 -0.027314989
0.0053297435 -0.008989129 -0.011029789 -0.00017615434 -0.02215534 -0.0058547193 -0.0007720398 0.0064681796
-0.017241634 -0.0132492995 -0.010295096 -0.0014499059 0.035999514 0.006815355 -0.015367886 0.0039866464
0.0033509468 -0.0065547028 -0.0016943616 0.013915717 -0.0036603555 0.0072341417 -0.046687357 -0.006534411
0.0013201403 0.006822127 0.009862846 0.028167488 0.010158162 -0.00830214 -0.0072336 0.026263619
-0.011718013 0.0029085404 0.020597868 -0.033344988 0.03240848 0.020145588 0.017933812 -0.004901143
-0.00064816105 0.032595657 0.036403783 -0.012477465 0.008247572 0.0063007073 -0.008486033 -0.03812457
-0.01774857 -0.012482679 -0.0045567323 -0.005532427 0.03453952 -0.00965939 -0.013431473 0.0032440843
0.006006111 0.011822338 -0.0067595947 0.00058441045 0.025053913 0.004441512 0.000103863895 0.009744197
0.013235263 -0.0070140366 -0.0006551427 -0.016544646 0.009204095 -0.006752953 -0.004126492 -0.018209781
-0.034478746 -0.0036035015 -0.037955996 0.037542947 -0.01252389 0.010810409 0.038812306 0.0054285973
0.0057817916 -0.0063092955 0.034049533 0.011198473 0.0136261005 0.005356248 0.022421071 -0.008372048
0.0104802465 -0.034005865 -0.0057626534 -0.013353252 -0.045622647 0.0092494665 -0.011334999 -0.011882397
-0.046441454 -0.022717884 0.0010823507 -0.004217633 0.025108747 0.005736384 -0.016743667 -0.01758695
-0.006875277 -0.017655274 -0.0018494477 0.018210975 -0.016129417 -0.041345987 0.0069568087 0.0049497643
-0.012697657 0.006783207 0.025326854 -0.0051001175 -0.02609563 0.03073014 0.026377732 -0.03405773
0.012029734 -0.036833726 0.013075776 0.0044583734 0.00023030222 0.013381956 -0.044990238 -0.0049873665
-0.0059199515 -0.017636273 0.006280624 0.0024013913 -0.020106556 0.017041668 -0.02002432 0.0033518793
0.0029673066 0.028885541 -0.046474196 0.024495889 0.017396871 0.006536908 -0.00836643 0.012608014
0.005483869 0.010116042 -0.006775972 0.017282097 -0.01547153 0.007961321 -0.0020861258 0.025725892
-0.008417754 0.002646801 -0.0017579325 0.0036150042 -0.01521488 -0.010502542 0.03485456 0.006970305
-0.0094980365 0.018450866 -0.00433264 -0.022475328 -0.014251943 -0.010028868 0.06903702 0.0004756591
-0.005580128 0.012959862 0.025488727 -0.0021707409 0.030262478 -0.03478844 -0.011815189 -0.035994194
-0.006414745 -0.009029067 0.0004636261 0.004654269 0.010003584 -0.0004029508 0.0050849905 0.032481015
00000000: c4f8 b53c 22bb 763b d4cf bab9 d2bd 10bb
00000010: df78 863c e70d a7bb 287e 89bc a6d9 a2bc
00000020: 2fae 54ba e6fb a63b df09 e438 16e2 d4bb
00000030: d9b3 a9bc da9d 7f3b e44c b3bb 8470 b4bc
00000040: 045a a8bc 139e ce3c 023a c9bc 08f0 a53c
00000050: 2cce ba3b 5102 023c e8d8 883c 7019 aabc
00000060: 198f bf3b e543 213c 2020 1abb e8fa 103c
00000070: 6d00 243c f99d 25bc aa5b 5d3c 4ac6 6bba
00000080: 0283 5bbc b405 b3bc 4650 3a3b 8cc8 103d
00000090: c6f1 0abd 2cda 8139 505d 6fbc c409 b9bc
000000a0: 2e8f aabb 2aae 3d3c 913a b93b 3e08 77bc
000000b0: ddb7 eab9 71c8 1cbd 05f9 a039 09c9 7cbc
000000c0: bf62 f9ba da6a a139 bd40 ec3c b208 b13b
000000d0: 1bd3 23bc dda0 a0bc 889d b93c 6177 323d
000000e0: 90bc d2bb 3da2 ccbc 8178 82bc fd99 cebc
000000f0: a396 48bc db6c 803c b0fb 5b3c 20b3 d2bc
00000100: c795 37bc b191 34bd 3ae1 203c 5d59 723c
00000110: 5e32 3f3c ae02 883b 8e0e 2dbc afc3 dfbc
00000120: 21a5 ae3b 2447 13bc 4ab6 34bc 12b6 38b9
00000130: 1e7f b5bc f2d8 bfbb b762 4aba 06f3 d33b
00000140: 543e 8dbc 9713 59bc c3ac 28bc c50a beba
00000150: 3a74 133d 5753 df3b 96c9 7bbc 6aa2 823b
00000160: 8f9b 5b3b d5c8 d6bb 5715 deba bffe 633c
00000170: 93e2 6fbb 610c ed3b 3e3b 3fbd 9d1e d6bb
00000180: 8f08 ad3a 268c df3b c697 213c 81bf e63c
00000190: 6b6e 263c b305 08bc d607 edbb cd26 d73c
000001a0: e9fc 3fbc 369d 3e3b dcbc a83c c194 08bd
000001b0: c1be 043d 5c08 a53c eee9 923c c499 a0bb
000001c0: 5ae9 29ba 0683 053d 221c 153d 486e 4cbc
000001d0: d320 073c 2a76 ce3b 0109 0bbc 8228 1cbd
000001e0: 7365 91bc 2784 4cbc a450 95bb 5d49 b5bb
000001f0: 5079 0d3d 6b42 1ebc ae0f 5cbc b49a 543b
00000200: e9ce c43b 7bb2 413c 977f ddbb 1f33 193a
00000210: dd3d cd3c 1a8a 913b 81d1 d938 20a6 1f3c
00000220: b7d8 583c 01d6 e5bb e2bd 2bba a388 87bc
00000230: c6cc 163c e047 ddbb 8637 87bb ae2c 95bc
00000240: 9639 0dbd b928 6cbb bf77 1bbd a2c6 193d
00000250: 0031 4dbc 241e 313c a7f9 1e3d 60e2 b13b
00000260: 2f75 bd3b 35be cebb 8677 0b3d cd79 373c
00000270: 0240 5f3c 7783 af3b 65ac b73c ea2a 09bc
00000280: 57b5 2b3c bc49 0bbd a4d4 bcbb 99c7 5abc
00000290: d0de 3abd 138b 173c 6fb6 39bc 63ae 42bc
000002a0: 6539 3ebd db1a babc aadd 8d3a 1234 8abb
000002b0: dcb0 cd3c 47f8 bb3b 042a 89bc 8212 90bc
000002c0: 014a e1bb cba1 90bc 2b69 f2ba 2f2f 953c
000002d0: d721 84bc 695a 29bd f1f5 e33b a231 a23b
000002e0: d509 50bc aa45 de3b 437a cf3c e31e a7bb
000002f0: 81c6 d5bc c6bd fb3c 1d16 d83c 1e80 0bbd
00000300: 5d18 453c f6de 16bd c83b 563c 8c17 923b
00000310: 487d 7139 fe3f 5b3c af47 38bd 106d a3bb
00000320: 27fc c1bb f279 90bc b1cd cd3b a960 1d3b
00000330: 81b6 a4bc f89a 8b3c 0b0a a4bc 34ab 5b3b
00000340: 2577 423b 5fa1 ec3c ba5b 3ebd 9aab c83c
00000350: e283 8e3c 8f33 d63b 5a13 09bc d891 4e3c
00000360: 07b2 b33b c1bd 253c f908 debb 2f93 8d3c
00000370: 4d7c 7dbc 3370 023c 62b7 08bb 1bbf d23c
00000380: 9fea 09bc f475 2d3b 6d6a e6ba b5e9 6c3b
00000390: d547 79bc db12 2cbc a8c3 0e3d 2867 e43b
000003a0: a79d 1bbc 4526 973c d2f8 8dbb 2e1e b8bc
000003b0: fb80 69bc 1f50 24bc 4863 8d3d e261 f939
000003c0: 82d9 b6bb 9a55 543c bccd d03c fd42 0ebb
000003d0: 04e9 f73c 537e 0ebd 7f94 41bc a66e 13bd
000003e0: c832 d2bb a7ee 13bc d712 f339 d782 983b
000003f0: 13e6 233c 2443 d3b9 fe9f a63b d00a 053d

1.mpn.b0 f4 [4, 128, 1]
0.14355128 -0.18101539 0.060804684 0.24625508 -0.051044468 0.27919778 0.25352156 0.583754
-0.121247284 0.08678996 0.015727274 0.25299254 0.057760697 0.055411465 0.22634703 0.5318446
-0.20227808 0.013552425 0.03538441 0.14883925 0.050632004 0.08443665 -0.13194281 0.23808327
-0.010695081 -0.06240473 0.037117217 -0.21243417 0.105637655 0.14393687 -0.054318115 -0.16195512
-0.078089155 -0.05925991 -0.15249848 0.21759589 0.060649555 0.24239771 -0.14306033 -0.35228986
0.027817093 -0.22180568 -0.018291822 0.050384384 0.17988826 -0.05050413 -0.039040137 -0.010950041
-0.16473328 0.27010703 0.11226562 0.06823553 0.105084054 -0.13737158 -0.07472496 0.10699006
0.46100345 -0.04249342 0.019656952 0.14286372 0.10303039 0.48529014 0.6122224 -0.19771233
-0.019668395 -0.1754407 0.10239226 -0.08842606 -0.21584849 0.20822951 -0.048437502 0.09701427
0.025357895 0.1519268 0.109105505 0.5604576 0.041284706 -0.1705948 0.030662153 0.57978684
0.5744104 0.5261337 0.076740004 0.093236044 0.08823882 -0.1041088 0.07534567 0.08086796
0.38536167 0.16533333 0.11336426 0.70461106 -0.24033125 0.08149778 0.094496705 0.3212632
-0.11272354 0.035373323 0.3368353 0.41599494 0.20554692 -0.04820929 -0.06192327 -0.2224082
0.3728728 0.25014994 -0.19881985 0.267625 0.11945643 0.22763798 -0.04700906 -0.15344633
-0.014299417 0.2932417 0.034967497 0.29158264 0.11237436 -0.28961545 0.1496457 0.22497277
-0.008797358 -0.081214726 -0.21256301 0.017738953 -0.20393132 0.008918576 0.41988862 0.113117725
0.018036738 -0.07881995 -0.059171908 -0.16623828 -0.13844053 -0.14581245 0.008866975 -0.07895755
0.30574614 -0.10941461 0.0021347834 0.094025 0.15890767 -0.0809953 0.03951626 -0.20951442
0.15223645 -0.056015495 -0.0053810095 -0.07702137 -0.13169765 -0.015054729 -0.069099836 0.02945919
0.042716555 -0.019999648 0.18357125 -0.020371603 -0.19244981 -0.12108123 -0.021640072 0.008896919
0.22841501 -0.007032066 0.06659067 -0.08086235 -0.086389706 -0.09008345 -0.12084742 0.14246927
0.10043859 -0.1686545 0.19044605 0.0068312217 -0.011010629 -0.0782758 0.19807167 -0.08053921
-0.13163152 -0.23055616 0.041338716 -0.033996027 0.051192317 -0.22164793 -0.06380122 0.11378695
-0.0013040435 0.26074633 -0.0803684 -0.041898657 -0.06603777 -0.1475207 0.038596705 0.4682932
-0.1856044 0.11961381 -0.18840684 -0.028159807 -0.091990404 -0.14218362 -0.16323517 0.037915964
0.070540845 0.026113076 0.070365295 -0.13062148 -0.15430148 0.19001767 0.41155526 -0.15090783
-0.0018975333 -0.01911642 0.061564796 0.037018497 -0.17909314 0.21589583 -0.21675685 0.094716735
-0.025002731 0.009132639 -0.124450006 0.13775378 0.16906777 -0.12710531 -0.20056202 0.17091127
-0.057523176 -0.0758893 -0.15735921 -0.20282581 0.018218443 -0.11360925 0.03583881 -0.2676404
0.03545246 0.006931719 -0.0922367 -0.23623246 -0.066397645 0.020464176 -0.0417574 0.092222705
0.06856858 0.28077376 -0.013585434 0.10493826 -0.15192594 0.23959726 -0.016799912 0.15434037
-0.047006518 0.12695162 0.070821784 0.09479492 -0.10357764 0.20097375 -0.22796199 0.02942126
00000000: 1bff 123e 195c 39be 550e 793d 4b2a 7c3e
00000010: 0114 51bd 03f3 8e3e 94cd 813e e770 153f
00000020: 7f50 f8bd efbe b13d 7cd6 803c 3d88 813e
00000030: 7b96 6c3d 22f7 623d 84c7 673e f826 083f
00000040: fc21 4fbe fe0a 5e3c 3eef 103d 5169 183e
00000050: 8163 4f3d 1fed ac3d 041c 07be 1acc 733e
00000060: 6c3a 2fbc 1a9c 7fbd 3908 183d 5888 59be
00000070: 8e58 d83d 3064 133e ac7c 5ebd 90d7 25be
00000080: 35ed 9fbd 85ba 72bd 9028 1cbe 75d1 5e3e
00000090: ab6b 783d 1b37 783e 687e 12be 565f b4be
000000a0: ace0 e33c 0721 63be bbd8 95bc db5f 4e3d
000000b0: a134 383e 6bdd 4ebd 8de8 1fbd cd67 33bc
000000c0: d7af 28be 784b 8a3e 84eb e53d 12bf 8b3d
000000d0: 4f36 d73d 23ab 0cbe 6609 99bd 9b1d db3d
000000e0: a508 ec3e 950d 2ebd 9e07 a13c de4a 123e
000000f0: 9901 d33d f377 f83e 9bba 1c3f 1a75 4abe
00000100: 9d1f a1bc baa6 33be 09b3 d13d b918 b5bd
00000110: 6307 5dbe 1e3a 553e 6766 46bd 6baf c63d
00000120: 5cbb cf3c b392 1b3e b572 df3d 267a 0f3f
00000130: 271a 293d 67b0 2ebe 322f fb3c e96c 143f
00000140: 8f0c 133f b3b0 063f dd29 9d3d 8af2 be3d
00000150: 8eb6 b43d ff36 d5bd d54e 9a3d 1a9e a53d
00000160: 204e c53e 244d 293e 852b e83d 6461 343f
00000170: 6519 76be 4fe8 a63d 7d87 c13d 9c7c a43e
00000180: 99db e6bd 9ee3 103d ad75 ac3e 4afd d43e
00000190: e47a 523e 1b77 45bd 41a3 7dbd fabe 63be
000001a0: 2fe9 be3e a713 803e 6e97 4bbe 2506 893e
000001b0: 93a5 f43d ee19 693e 928c 40bd 0921 1dbe
000001c0: 1a48 6abc c723 963e 143a 0f3d 524a 953e
000001d0: 8724 e63d 7a48 94be b93c 193e 435f 663e
000001e0: cb22 10bc e853 a6bd 1eaa 59be 4851 913c
000001f0: 5fd3 50be 381f 123c a4fb d63e 44aa e73d
00000200: c8c1 933c 5b6c a1bd 3e5e 72bd 5e3a 2abe
00000210: 5bc3 0dbe dc4f 15be ca46 113c 7fb4 a1bd
00000220: c28a 9c3e c414 e0bd b9e7 0b3b 2e90 c03d
00000230: b1b8 223e dde0 a5bd cddb 213d f38a 56be
00000240: dfe3 1b3e 8170 65bd 2e53 b0bb 61bd 9dbd
00000250: c0db 06be 1ca8 76bc 3784 8dbd 6654 f13c
00000260: 8ef7 2e3d 4dd6 a3bc 1afa 3b3e 59e2 a6bc
00000270: 9011 45be 70f9 f7bd 8546 b1bc 62c4 113c
00000280: a0e5 693e 3f6d e6bb b060 883d 299b a5bd
00000290: 16ed b0bd ac7d b8bd da7e f7bd 77e3 113e
000002a0: bfb2 cd3d c4b3 2cbe 4a04 433e 71d8 df3b
000002b0: ed65 34bc 104f a0bd 4dd3 4a3e bef1 a4bd
000002c0: 6aca 06be ea16 6cbe c952 293d 6b3f 0bbd
000002d0: 09af 513d adf7 62be 37aa 82bd 2209 e93d
000002e0: 70ec aaba 8b80 853e 3098 a4bd ed9d 2bbd
000002f0: cf3e 87bd ab0f 17be 9417 1e3d 20c4 ef3e
00000300: 140f 3ebe 16f8 f43d b9ed 40be 65af e6bc
00000310: 7765 bcbd 9598 11be 1f27 27be c54d 1b3d
00000320: b877 903d 17eb d53c ae1b 903d a3c1 05be
00000330: 3501 1ebe fe93 423e 5fb7 d23e 9587 1abe
00000340: a7b6 f8ba 0a9a 9cbc 5e2b 7c3d b5a0 173d
00000350: 3164 37be cc13 5d3e 82f5 5dbe d9fa c13d
00000360: 87d2 ccbc 10a1 153c a5df febd 540f 0d3e
00000370: 1a20 2d3e e527 02be 2160 4dbe 5d03 2f3e
00000380: 6c9d 6bbd d96b 9bbd c622 21be 92b1 4fbe
00000390: d83e 953c f7ab e8bd b7cb 123d 2a08 89be
000003a0: 9936 113d 7923 e33b 98e6 bcbd ece6 71be
000003b0: 7dfb 87bd 7da4 a73c cf09 2bbd 42df bc3d
000003c0: af6d 8c3d 94c1 8f3e 7195 5ebc dfe9 d63d
000003d0: 7992 1bbe fc58 753e f89f 89bc 670b 1e3e
000003e0: e889 40bd 9bff 013e 030b 913d d723 c23d
000003f0: 8420 d4bd 10cc 4d3e de6e 69be db04 f13c
