src/centroidal-mpc-walking/config/robots/ergoCubGazeboV1_1/onnx_50_mann8_smaller_steps_wider_legs_and_arms.onnx (onnx, 409796 bytes, 16 tensors)

0.weight f4 [124, 124]
00000000: 7502 9540 0000 0000 0000 0000 0000 0000
00000010: 0000 0000 0000 0000 0000 0000 0000 0000
00000020: 0000 0000 0000 0000 0000 0000 0000 0000
00000030: 0000 0000 0000 0000 0000 0000 0000 0000
00000040: 0000 0000 0000 0000 0000 0000 0000 0000
00000050: 0000 0000 0000 0000 0000 0000 0000 0000
00000060: 0000 0000 0000 0000 0000 0000 0000 0000
00000070: 0000 0000 0000 0000 0000 0000 0000 0000
00000080: 0000 0000 0000 0000 0000 0000 0000 0000
00000090: 0000 0000 0000 0000 0000 0000 0000 0000
000000a0: 0000 0000 0000 0000 0000 0000 0000 0000
000000b0: 0000 0000 0000 0000 0000 0000 0000 0000
000000c0: 0000 0000 0000 0000 0000 0000 0000 0000
000000d0: 0000 0000 0000 0000 0000 0000 0000 0000
000000e0: 0000 0000 0000 0000 0000 0000 0000 0000
000000f0: 0000 0000 0000 0000 0000 0000 0000 0000
00000100: 0000 0000 0000 0000 0000 0000 0000 0000
00000110: 0000 0000 0000 0000 0000 0000 0000 0000
00000120: 0000 0000 0000 0000 0000 0000 0000 0000
00000130: 0000 0000 0000 0000 0000 0000 0000 0000
00000140: 0000 0000 0000 0000 0000 0000 0000 0000
00000150: 0000 0000 0000 0000 0000 0000 0000 0000
00000160: 0000 0000 0000 0000 0000 0000 0000 0000
00000170: 0000 0000 0000 0000 0000 0000 0000 0000
00000180: 0000 0000 0000 0000 0000 0000 0000 0000
00000190: 0000 0000 0000 0000 0000 0000 0000 0000
000001a0: 0000 0000 0000 0000 0000 0000 0000 0000
000001b0: 0000 0000 0000 0000 0000 0000 0000 0000
000001c0: 0000 0000 0000 0000 0000 0000 0000 0000
000001d0: 0000 0000 0000 0000 0000 0000 0000 0000
000001e0: 0000 0000 0000 0000 0000 0000 0000 0000
000001f0: 0000 0000 fecc 0341 0000 0000 0000 0000
00000200: 0000 0000 0000 0000 0000 0000 0000 0000
00000210: 0000 0000 0000 0000 0000 0000 0000 0000
00000220: 0000 0000 0000 0000 0000 0000 0000 0000
00000230: 0000 0000 0000 0000 0000 0000 0000 0000
00000240: 0000 0000 0000 0000 0000 0000 0000 0000
00000250: 0000 0000 0000 0000 0000 0000 0000 0000
00000260: 0000 0000 0000 0000 0000 0000 0000 0000
00000270: 0000 0000 0000 0000 0000 0000 0000 0000
00000280: 0000 0000 0000 0000 0000 0000 0000 0000
00000290: 0000 0000 0000 0000 0000 0000 0000 0000
000002a0: 0000 0000 0000 0000 0000 0000 0000 0000
000002b0: 0000 0000 0000 0000 0000 0000 0000 0000
000002c0: 0000 0000 0000 0000 0000 0000 0000 0000
000002d0: 0000 0000 0000 0000 0000 0000 0000 0000
000002e0: 0000 0000 0000 0000 0000 0000 0000 0000
000002f0: 0000 0000 0000 0000 0000 0000 0000 0000
00000300: 0000 0000 0000 0000 0000 0000 0000 0000
00000310: 0000 0000 0000 0000 0000 0000 0000 0000
00000320: 0000 0000 0000 0000 0000 0000 0000 0000
00000330: 0000 0000 0000 0000 0000 0000 0000 0000
00000340: 0000 0000 0000 0000 0000 0000 0000 0000
00000350: 0000 0000 0000 0000 0000 0000 0000 0000
00000360: 0000 0000 0000 0000 0000 0000 0000 0000
00000370: 0000 0000 0000 0000 0000 0000 0000 0000
00000380: 0000 0000 0000 0000 0000 0000 0000 0000
00000390: 0000 0000 0000 0000 0000 0000 0000 0000
000003a0: 0000 0000 0000 0000 0000 0000 0000 0000
000003b0: 0000 0000 0000 0000 0000 0000 0000 0000
000003c0: 0000 0000 0000 0000 0000 0000 0000 0000
000003d0: 0000 0000 0000 0000 0000 0000 0000 0000
000003e0: 0000 0000 0000 0000 8869 b940 0000 0000
000003f0: 0000 0000 0000 0000 0000 0000 0000 0000
4.65655 0.0 0.0 0.0 0.0 0.0 0.0 0.0
0.0 0.0 0.0 0.0 0.0 0.0 0.0 0.0
0.0 0.0 0.0 0.0 0.0 0.0 0.0 0.0
0.0 0.0 0.0 0.0 0.0 0.0 0.0 0.0
0.0 0.0 0.0 0.0 0.0 0.0 0.0 0.0
0.0 0.0 0.0 0.0 0.0 0.0 0.0 0.0
0.0 0.0 0.0 0.0 0.0 0.0 0.0 0.0
0.0 0.0 0.0 0.0 0.0 0.0 0.0 0.0
0.0 0.0 0.0 0.0 0.0 0.0 0.0 0.0
0.0 0.0 0.0 0.0 0.0 0.0 0.0 0.0
0.0 0.0 0.0 0.0 0.0 0.0 0.0 0.0
0.0 0.0 0.0 0.0 0.0 0.0 0.0 0.0
0.0 0.0 0.0 0.0 0.0 0.0 0.0 0.0
0.0 0.0 0.0 0.0 0.0 0.0 0.0 0.0
0.0 0.0 0.0 0.0 0.0 0.0 0.0 0.0
0.0 0.0 0.0 0.0 0.0 8.237547 0.0 0.0
0.0 0.0 0.0 0.0 0.0 0.0 0.0 0.0
0.0 0.0 0.0 0.0 0.0 0.0 0.0 0.0
0.0 0.0 0.0 0.0 0.0 0.0 0.0 0.0
0.0 0.0 0.0 0.0 0.0 0.0 0.0 0.0
0.0 0.0 0.0 0.0 0.0 0.0 0.0 0.0
0.0 0.0 0.0 0.0 0.0 0.0 0.0 0.0
0.0 0.0 0.0 0.0 0.0 0.0 0.0 0.0
0.0 0.0 0.0 0.0 0.0 0.0 0.0 0.0
0.0 0.0 0.0 0.0 0.0 0.0 0.0 0.0
0.0 0.0 0.0 0.0 0.0 0.0 0.0 0.0
0.0 0.0 0.0 0.0 0.0 0.0 0.0 0.0
0.0 0.0 0.0 0.0 0.0 0.0 0.0 0.0
0.0 0.0 0.0 0.0 0.0 0.0 0.0 0.0
0.0 0.0 0.0 0.0 0.0 0.0 0.0 0.0
0.0 0.0 0.0 0.0 0.0 0.0 0.0 0.0
0.0 0.0 5.794132 0.0 0.0 0.0 0.0 0.0

0.bias f4 [124]
00000000: fe06 3d3e f56b 3739 78ff 373e 7334 0b39
00000010: 0826 343e a867 c738 98bb 343e 930d 7938
00000020: 512c 3a3e c007 d237 0000 0080 0000 0080
00000030: e847 4fbe f190 e337 b2aa 57be ed1f 4e38
00000040: ea97 58be 0ab6 9138 b5d7 53be 8b40 b638
00000050: fdba 4ebe 2591 e338 9e7e 4cbe 18fb 0a39
00000060: 2dd2 12c1 ea29 07b2 b1c0 4dc1 09cc 8eb0
00000070: 23a4 a2c1 a3cf 2c31 41a7 22c2 31a4 5530
00000080: a9d1 10c3 1e94 7ab0 0000 80bf 9f3e 34a0
00000090: cfc5 10c3 19cc d031 7684 22c2 3d7c 2131
000000a0: 466d a2c1 6e18 af31 d25e 4dc1 50cc 8431
000000b0: 3470 12c1 f403 d531 dfaa dec0 678e 5f32
000000c0: 7638 1abe 7c75 fab8 8da2 17be 13a4 d8b8
000000d0: b168 0bbe 42c1 c6b8 7c1f 03be 768f a2b8
000000e0: 64f0 0abe 5b47 26b8 0077 1cbe d893 fc36
000000f0: 3317 29be 7db5 1938 ca4b 29be 7761 6738
00000100: c7ae 1abe 3c3e 4e38 dfdb 09be 3b0d 5538
00000110: f97d 05be 82a8 9538 c952 0dbe a367 cf38
00000120: cfb4 81be 3b6c 0abf 5522 9abe e184 8d3f
00000130: e12a 5c3f b8b1 103f 9788 81be 8025 0fbf
00000140: 7b42 98be b77b 8d3f 19f4 5b3f 4aba 153f
00000150: c106 aec0 e4e1 8ab5 9653 fb33 7dca 2abf
00000160: 70bd 19b5 de6a 05b3 5e48 a13f 41fe 1cc4
00000170: bf54 3840 721e 3cbf 1f48 a13f e701 1dc4
00000180: a554 3840 701e 3cbf 52c5 5e38 4674 9a38
00000190: 130e a3b9 420c 2cb8 2aa0 72b7 55bd feb8
000001a0: bd8c 5f38 c573 9a38 1b01 a3b9 de82 2bb8
000001b0: ae50 70b7 71c8 feb8 8b71 6d3a b016 7a33
000001c0: a2d4 3eb0 228d 9bb9 05cd d133 728e 6832
000001d0: 7a89 4ab8 c96e 3a20 e0d5 a2b8 45da bd3a
000001e0: ecae 4ab8 a473 3aa0 4ecc a2b8 03da bd3a
0.18459699 0.00017492457 0.17968547 0.00013275612 0.17592633 9.508367e-05 0.17649686 5.9378868e-05
0.18180968 2.503756e-05 -0.0 -0.0 -0.20242274 2.7128002e-05 -0.21061209 4.914396e-05
-0.211517 6.948046e-05 -0.20687754 8.690458e-05 -0.20188518 0.00010851239 -0.19970176 0.00013254245
-9.176312 -7.867564e-09 -12.859544 -1.038985e-09 -20.330145 2.5147322e-09 -40.663334 7.772228e-10
-144.81898 -9.115996e-10 -1.0 -1.5267313e-19 -144.77269 6.0768e-09 -40.629356 2.3499205e-09
-20.303356 5.0959477e-09 -12.8356495 3.8649333e-09 -9.152393 6.1995653e-09 -6.9583583 1.3012687e-08
-0.150606 -0.00011942812 -0.14808102 -0.00010330244 -0.13614155 -9.477373e-05 -0.12804979 -7.751484e-05
-0.13568264 -3.964394e-05 -0.1527977 7.5273965e-06 -0.16512756 3.6647067e-05 -0.16532817 5.5165463e-05
-0.15105735 4.9172188e-05 -0.1346278 5.079548e-05 -0.13036336 7.136261e-05 -0.13801111 9.889833e-05
-0.25333259 -0.54071397 -0.30104318 1.1056176 0.8600293 0.5652118 -0.25299522 -0.55916595
-0.2973822 1.105338 0.8591934 0.5848738 -5.4383245 -1.0347544e-06 1.17033025e-07 -0.6671522
-5.727261e-07 -3.106367e-08 1.260021 -627.9727 2.8801725 -0.73483956 1.2600135 -628.0297
2.8801663 -0.73483944 5.3112693e-05 7.36495e-05 -0.0003110027 -4.101941e-05 -1.4461615e-05 -0.0001214693
5.3298416e-05 7.364856e-05 -0.00031090606 -4.0891457e-05 -1.4323899e-05 -0.00012148999 0.0009057752 5.8228295e-08
-6.9423767e-10 -0.00029669056 9.769614e-08 1.3536566e-08 -4.8288588e-05 1.5791469e-19 -7.764599e-05 0.0014484605
-4.832346e-05 -1.5793075e-19 -7.762817e-05 0.0014484528

1.gn.w0 f4 [32, 124]
00000000: 5d67 0c3d 2264 0abe 6729 76bd 0c28 dbbd
00000010: 278d 65bc 0085 2fbe ab7c 9dbd 4262 81be
00000020: 864f acbd de45 55be 66fc 01bc a3e3 13be
00000030: 34bd c03c da63 713d 6d45 e23d c774 113d
00000040: 0fe1 673e c818 11be 66d8 233e cfe3 81bd
00000050: 27db 273e 2df4 443c 435a ec3d 5ca4 e93c
00000060: 74ed b33d 1497 a4bc 382f d6bd 37c5 a8bd
00000070: 183e 8b3d 24a0 d4bc 8d8a 3e3c 1c52 883d
00000080: bf9c 9abd c78c 8c3d 04c8 3e3d ce61 0dbc
00000090: 84c7 b53d 1a5e 13bd 4772 34bd e1a6 b53b
000000a0: 3647 13bd 0c78 fe3d 5164 cdbd c30e c83d
000000b0: 1631 623d 2e68 023e 0f6c 5bbc 7a1e 493d
000000c0: 1b4e ef3c dc97 cd3c 1ee6 e5bc e143 d23c
000000d0: 1a5c a9bc fde2 a6bc c7f0 af3d 0441 b0bc
000000e0: 7259 8b3d f866 e73c 9409 00be 9c13 a03c
000000f0: ffbf 043e f55a 7a3c d300 dd3d c581 babc
00000100: 962c 90bc 3b3d 38bd 4945 8f3c 5a31 b53b
00000110: 29b7 7c3d 3e35 ae3d 5f02 3fbc 5b9d b23d
00000120: cae1 06bd 3cbf 30be b62a 6a38 0e2b 143e
00000130: 27cc 8b3d 530e 363e 0df9 1c3e bfa9 123e
00000140: 8332 273d d015 bfbd 75ba 0fbd ef85 c5bd
00000150: b910 c13c b601 293d afd6 71bc fe68 35bd
00000160: de11 53bd 37bb 753d 715c 30bd e4e4 f43d
00000170: 9f10 323d 8ed6 32bd 0286 b9bc d172 99ba
00000180: d9e9 e63b 8966 6fbc 8d9f c83d 8393 043d
00000190: 41b2 11be 368a 863c a59a 5dbb b449 363c
000001a0: d922 673e 0038 9fbd 3227 acbd 9326 29bc
000001b0: e1c5 223d 51f6 69bc 7610 403d ce70 b6bd
000001c0: 05bd b3bc 5f72 63bd d4d4 9a3d 2a55 c73d
000001d0: 6303 99bd 2e61 1c3d 261a 033d 71e7 eabc
000001e0: cd1c d3bd 9a55 003d e0dc 833c 9f96 71bc
000001f0: 24cd bb3d 86b0 3fbe eceb c43d 4d65 eebc
00000200: 6684 3e3d 0817 3bbc 28d6 0f3e 6f36 713d
00000210: 2232 1e3e 024b c93e 4420 5ebd 2965 123e
00000220: d6a8 683d 6fb3 84be bef1 363c 11e1 01be
00000230: fc2f 583d 7bfa e83d 18f7 363c a215 793e
00000240: a89b febd 541e 9c3e 0b08 87bd f463 823e
00000250: 7ccd ccbd 5c4f e53c 071d 823d 7b66 9dbc
00000260: 6652 573d f003 bc3d b07e dabd 85f9 ae3d
00000270: b727 8c3d 7434 5c3c f7f3 7a3b 6ae7 7a3b
00000280: f6ae 403d 8602 86bd 8b36 d9bd 08b9 663e
00000290: 0e44 ad3c 0296 1f3e bb33 a93c 8a7b bc3d
000002a0: 8195 b33d 191c 273d 60bd 303d b870 29bd
000002b0: 04a1 edbc 1cb7 b33d c7cd e4bc 1f1b 353e
000002c0: 8b54 c93c a959 2d3e bb1b adbd 340c ed3c
000002d0: b90d 303b 527f 87bd 74a0 be3e 2931 e6be
000002e0: b802 eb3c 04d8 e2bc b7b6 813d 4384 3a3e
000002f0: bff7 d3bd 9a17 ea3e c4ac bdbd e6d2 a73d
00000300: 88e2 84bd 8403 fb3c a6f1 c0bd cd54 20be
00000310: ed44 963d 072b 41be 071b 12bc 06f6 2f3e
00000320: 2bda 7a3e dce8 443e d23b c2bd 77f6 8fbe
00000330: 086b abbd 5c85 ba3d ca44 84bd 2d57 353e
00000340: c732 483d 0d34 fc3d add8 bfbc 353d 1cbd
00000350: 74a6 d8bd fadb 063d bfb9 a1bc 4ccf 363d
00000360: 90d5 adbd a1c3 013e f860 5b3d 225d 363e
00000370: 93eb e5bc b3ab 3c3d 32e5 903e 9bb9 17bd
00000380: e753 b2bd 6c24 f8bd 724e 73bd 1cc2 e63d
00000390: 64fb d6bd 5e83 cfbe ff84 bb3d c068 0a3f
000003a0: 199e d33e a81d d53e cd91 ba3c 98a3 883d
000003b0: d83d 843d 80da da3c ec92 b43d 5a86 233c
000003c0: c7b4 fc3c 75a4 8ebd 1652 eb3b cdf2 583d
000003d0: 83ce 093d 70a1 c8bd 5590 6cbc b91c 2bbd
000003e0: df83 69bd 7a90 a8bd 6b15 1e3e 1cc4 dfbd
000003f0: 1f11 133e 7b7a 7ebb aef1 303e ed8c 09bd
0.034278262 -0.1351476 -0.060098078 -0.10700998 -0.014010704 -0.17140579 -0.07689794 -0.25270277
-0.084136054 -0.20827433 -0.007933712 -0.14442305 0.02352772 0.058933116 0.11048398 0.03551176
0.22644447 -0.1416961 0.16000518 -0.06342279 0.16392194 0.012021107 0.115406536 0.028520755
0.08785525 -0.02009157 -0.10458225 -0.08240741 0.06798953 -0.025955267 0.011629713 0.06656286
-0.07549428 0.06862789 0.04657747 -0.0086292755 0.08875945 -0.035978414 -0.044054296 0.005543575
-0.035956584 0.12425241 -0.100288995 0.097684406 0.055222593 0.12735054 -0.013392462 0.04910133
0.029212048 0.025096826 -0.02806383 0.025667133 -0.0206738 -0.020371908 0.085908465 -0.021515377
0.0680417 0.028247342 -0.12503654 0.0195406 0.12963866 0.015280475 0.10791173 -0.022766957
-0.017599385 -0.04498027 0.017489092 0.005529565 0.061698113 0.08506249 -0.01165828 0.087214194
-0.032930173 -0.1726045 5.5829725e-05 0.14469549 0.06826048 0.17778902 0.1532938 0.14322565
0.040819656 -0.09330332 -0.03508993 -0.096446864 0.023567544 0.041261397 -0.014760657 -0.04428958
-0.05153071 0.059992995 -0.04305691 0.1195772 0.043472882 -0.043661647 -0.022646908 -0.0011707192
0.00704692 -0.014611849 0.09796057 0.03236724 -0.14228155 0.016423326 -0.00338141 0.011125971
0.22571887 -0.07774353 -0.084059134 -0.010324138 0.039739493 -0.014279918 0.0468907 -0.089082345
-0.021940717 -0.055528995 0.07560125 0.09733041 -0.07471349 0.038178615 0.03200736 -0.028674813
-0.10308228 0.031331636 0.016096532 -0.0147453835 0.09169987 -0.18719682 0.09615311 -0.029101038
0.046512984 -0.011419065 0.14046538 0.058889803 0.15448812 0.3931504 -0.05422999 0.14296402
0.05680164 -0.25918147 0.011166034 -0.12683512 0.052780136 0.113759 0.01116731 0.24324659
-0.12432033 0.3049189 -0.06593331 0.25466883 -0.100001305 0.027991943 0.06353193 -0.019213906
0.052568816 0.091804385 -0.10668695 0.08543686 0.068435125 0.01344024 0.0038292387 0.0038284906
0.047041856 -0.0654345 -0.10606106 0.22531521 0.021150615 0.15584567 0.02065455 0.09203251
0.0876875 0.04079828 0.043149352 -0.041367263 -0.029007442 0.0877516 -0.027930154 0.17686127
0.024576446 0.16928734 -0.08452555 0.028936483 0.0026863648 -0.06616081 0.3723179 -0.4495938
0.02868782 -0.027690895 0.06333678 0.18214516 -0.10349988 0.45721132 -0.09261468 0.081945226
-0.0648852 0.030641325 -0.09421091 -0.15657349 0.07337365 -0.1886407 -0.008917577 0.17183694
0.24497287 0.19229454 -0.09484066 -0.28117725 -0.08370024 0.091074675 -0.06458433 0.17709036
0.04887655 0.123146154 -0.023418749 -0.03814431 -0.105786234 0.03292463 -0.019741891 0.044631287
-0.084879994 0.12672283 0.053559273 0.17808965 -0.028066432 0.046062183 0.28299862 -0.03704224
-0.08707409 -0.12116322 -0.059400983 0.11267492 -0.10497168 -0.40529913 0.09156226 0.54066086
0.41331556 0.41624188 0.022774601 0.06671828 0.06457108 0.026715517 0.088170856 0.009980762
0.03084792 -0.069649614 0.0071814163 0.052965928 0.03364421 -0.09796417 -0.014438708 -0.04177544
-0.057010528 -0.08230682 0.15437858 -0.10926077 0.14362 -0.0038830328 0.17279693 -0.033581663

1.gn.w1 f4 [32, 32]
00000000: 1e65 033e aa76 e83d d26d 6d3c 7fda a23d
00000010: 9e95 82bd 2dfe e33d 773a 7cbc 6ede 853d
00000020: 8ff1 f23d 0173 3f3d 9022 5b3e 3284 543d
00000030: 886f 6c3c 776e bf3b d5ab 39bd 6588 823e
00000040: 7c7a 57be 9563 e5bd 372f 343e 1ff9 92bd
00000050: 4ce6 b1bd 3e8b 3a3d 0248 72bd 116c abbc
00000060: 3f58 85be ae5c 59bd 6b40 ed3d 06d0 b1bc
00000070: cc5f 14bd 2d0e 823d d676 923d e7e6 5abd
00000080: ff5e 21bd 0a83 56be 4df9 3c3d bea1 80ba
00000090: b5fe 393b 2cb9 6cbd b824 6d3d 0ebc 2fbb
000000a0: d942 0f3e 6c27 de3c fbfe 55be c332 88bd
000000b0: a6ec 723d 8bef ebbd f5c6 b13b 5a89 0dbe
000000c0: f2e2 133e add2 af3d b05d 6dbe fed8 583c
000000d0: 4b5e 0d3d d6db b4bd 0734 993c 8b9e a5bd
000000e0: 92f7 cb3d 736b 483c ca6f 4c3d 7b1d 313d
000000f0: c3e5 64bd 9f0a b2bd 4b77 dfbd c5b9 2a3e
00000100: 10b3 97be 5d7f 11be 4f32 663e 1089 903e
00000110: 1bb9 77bd 0a4a 823e c157 c33d bb08 fbbd
00000120: d312 313e 865a a3bd 4427 223b b62d 1d3e
00000130: 0935 aebd 93f6 42be 83bb b53d bef2 23bd
00000140: 9fa5 903e 2b94 023e 7501 36bd 4ca2 d83d
00000150: 8fd6 d03d 18de 133c ac82 fe3d 22a5 fcbd
00000160: f294 053e fbbd 36bd 42e6 563e a739 b9bd
00000170: 2003 193e 27a3 a83d 5c2a d3be 86af 96bc
00000180: dcce b23d 3e63 8bbc d1ea 25be d60b 7fbe
00000190: 5b11 53bd dea4 c9bd 5b11 01bd f0d8 073e
000001a0: 7cff 7abc ef4d 9ebd d3cf 15bd fb12 3d3d
000001b0: e5b0 303e f080 0d3d d4e5 3b3e 78b2 3fbc
000001c0: 3692 9d3c 6bc8 443d 17c1 edbc 3685 0abe
000001d0: 9012 a43c 65ad 34bb ab03 f53c 9773 813d
000001e0: 97c8 8a3c 4902 8f3d bf4e 0e3d a08c ba3c
000001f0: 1205 9dbe b965 9b3d 94c7 9a3d 591c 35bd
00000200: 089e 7dbe f06b 41be 7de4 283e ef13 a4bd
00000210: 1067 f4bd 13d2 30be ef64 ddbb 7b0f f0bd
00000220: 376b af3c ff4b 413e a2fe babe 18b3 0f3e
00000230: 7194 493c 1e2b de3b 57dd c2bc a71b 81be
00000240: 808f 993e bfc7 d63c a9b4 5fbe 6924 27bd
00000250: c4a5 0fbc 3ea7 a13d cda8 83be 91a9 93bc
00000260: 817b 9e3e 5e62 803d a05a 9d3d 75ec 9abd
00000270: 719e 07be 74fd e3be f08c 77be 6d2a 8c3e
00000280: 0d8e 2ebe 84c9 cf3d d38d a13e 5fda 983e
00000290: 6420 0f3d c021 c43e 863d f1bd d829 72be
000002a0: b998 263e 1703 803d 841a 86be 67fc 1abe
000002b0: 2611 7ebe 35ac b9bd ec20 7cbe db2e 7dbe
000002c0: d962 d4bd 6c1d a9bd 2024 61bd fabc 463e
000002d0: bfc1 cbbd c57e 82bc 4c14 ab3d 0373 afbe
000002e0: b413 4e3d 6777 1ebe 424c 4dbe 03ea 0dbe
000002f0: 37fe df3d d1a5 cabd f55f 8bbe 09f9 5dbc
00000300: 4c54 bb3d c15a d93d b110 19bc 0c1a 3ebe
00000310: dfb0 cfbd ee54 8a3e ec75 a6bd f3ab ecbd
00000320: 92be 823d 34b9 8d3d 4d83 a63d 764e 7abe
00000330: fa26 d5bc f2a6 343e 623e 94bd a38b 7b3e
00000340: 56df 45bd 0aa0 ccbc 025d 9a3e 77a1 2dbe
00000350: abbe db3c c985 653b c9fd 6dbe 15bb 2c3e
00000360: 38d0 9bbd 7ddb a6bd b179 953a d5cf aa3d
00000370: c964 2fbe 6fe1 2e3e 34f6 0a3c 63b4 63be
00000380: 97bd d7bd cde1 f43d f0f0 863b 7044 073c
00000390: 9580 21be db51 e1bd d2bf 2cbe f8c2 383d
000003a0: 55c7 843e b304 d2bd 45dd 0c3e 8b67 cd3d
000003b0: 6f99 90bc 186b 4b3e 7928 d43d 79cc d93d
000003c0: 03fc 21bc 1e49 c3bd fa11 01be 0e10 dbbc
000003d0: b104 053e a7d0 373e dfd9 b53d 355c 013c
000003e0: 009f 52bd 4dbe 1a3d bb59 d63e f315 20bb
000003f0: efb0 b23c b79b 4bbe f27d 14be 076a 6d3d
0.12831542 0.113507584 0.014491515 0.07951831 -0.063761935 0.111324646 -0.0153947985 0.06536566
0.1186248 0.046740536 0.21399903 0.051883884 0.014430888 0.005842026 -0.045329887 0.25494686
-0.21042818 -0.112006344 0.17596136 -0.07176422 -0.08686504 0.045542948 -0.059150703 -0.020925554
-0.2604389 -0.0530669 0.115845524 -0.021705639 -0.03622417 0.0635036 0.071515724 -0.053442862
-0.039397236 -0.20948425 0.04613619 -0.0009813828 0.0028380577 -0.05779378 0.057896346 -0.002681497
0.13990344 0.027118407 -0.20898049 -0.06650307 0.059307717 -0.115202986 0.005425329 -0.13821927
0.14442042 0.08585105 -0.2318027 0.013235329 0.034513753 -0.08830993 0.018701566 -0.0808688
0.0995933 0.012232649 0.049911298 0.043241005 -0.05588318 -0.08693432 -0.10911425 0.16672428
-0.296288 -0.14208741 0.22480129 0.2822957 -0.060479265 0.25447112 0.09538222 -0.122575246
0.17292337 -0.0797625 0.0024742642 0.15349469 -0.085062094 -0.19039373 0.08873656 -0.04002642
0.2825136 0.12751834 -0.044434983 0.10577831 0.10197174 0.009025119 0.124272674 -0.12336184
0.130451 -0.044614773 0.20986274 -0.090441994 0.14942598 0.08234244 -0.41243255 -0.018394243
0.087308615 -0.017015096 -0.16202857 -0.24906859 -0.051530223 -0.09845899 -0.031510692 0.13266349
-0.015319701 -0.077297084 -0.03657515 0.04616068 0.1725498 0.034546793 0.18349391 -0.011700265
0.019234758 0.048042696 -0.029022736 -0.13527378 0.020028383 -0.0027569172 0.029908976 0.06320875
0.016941352 0.06982858 0.034743067 0.022772133 -0.3066793 0.075877614 0.07557598 -0.044216488
-0.24767315 -0.18888831 0.16493411 -0.080116145 -0.1193372 -0.17267637 -0.006756417 -0.11721703
0.021413429 0.18876646 -0.36522394 0.14033163 0.012303458 0.0067800423 -0.023787184 -0.2521641
0.29992294 0.026218293 -0.2184626 -0.040806208 -0.008767549 0.07893227 -0.25714722 -0.018025192
0.309536 0.06268762 0.07683301 -0.07564632 -0.13244034 -0.44529307 -0.24174857 0.27376118
-0.17046376 0.10145858 0.31553516 0.29854104 0.034943 0.38307 -0.11779313 -0.23648775
0.16269197 0.06250589 -0.26192105 -0.15135346 -0.24811229 -0.09066049 -0.24621934 -0.24724905
-0.10370416 -0.08257565 -0.054966092 0.19408026 -0.099490635 -0.015929589 0.08353481 -0.34267434
0.05031176 -0.15475236 -0.20048621 -0.138588 0.109371595 -0.09894908 -0.27221647 -0.013548144
0.09146938 0.10613013 -0.009342358 -0.18564624 -0.10141157 0.2701792 -0.081279606 -0.11556234
0.06384005 0.0692009 0.081305124 -0.24443993 -0.026019562 0.1764181 -0.07238461 0.24564986
-0.048308693 -0.024978656 0.30149084 -0.16956125 0.026824316 0.003502237 -0.23241343 0.16868241
-0.07608074 -0.08147333 0.0011404065 0.08340422 -0.1712829 0.17078184 0.008481551 -0.22236781
-0.10534208 0.119571306 0.0041180775 0.008256063 -0.15771706 -0.11001941 -0.16870049 0.04510781
0.25933328 -0.102548026 0.13756283 0.10029515 -0.017651288 0.19865072 0.10359282 0.10634703
-0.009886744 -0.0953543 -0.12604514 -0.026741054 0.12990071 0.17950688 0.08879446 0.007895519
-0.051421165 0.03777914 0.41865334 -0.0024427145 0.021812884 -0.19883619 -0.1450117 0.057962444

1.gn.w2 f4 [4, 32]
00000000: 333c e33d 1fd9 10be 4995 5c3c d1ea 58be
00000010: b09c 3a3e 1f16 4dbe fd3e 12bd 4cac 523d
00000020: 27bc 9c3d 8b0a 7d3e 5289 aebe 1b6a 1b3e
00000030: 6e71 6e3e 812d 3d3e 2fe7 02be 311b 1dbe
00000040: 16d5 b0be 313f 10be f5ca 6c3e 940e 2ebe
00000050: 24a2 56bd 6518 c4bb dfa0 c3bd 5b13 3fbe
00000060: e396 87be d4fa 55bd 0cda a43d ebc4 aebd
00000070: ebe1 803d 2a30 583e f5a6 d93d 5ab0 573e
00000080: c5df 00bd b441 d53b 21e2 103b b370 f63b
00000090: 63aa 713e b4d7 9abe 4e9d 13be 0e98 6f3d
000000a0: 7cdd 393d b1ce 843e 9881 5fbe a7ff dfba
000000b0: 5173 8e3e e2bc 3e3e cd62 5c3d df43 1fbe
000000c0: 7a4b adbe e96c 9f3a d6e2 703e 5227 27be
000000d0: a6dd 3dbd e75f 05be 77bf 97bd aea6 03bd
000000e0: 8e3a a5bd 0aa2 4ebe 9e53 adba 9360 0a3e
000000f0: e3a6 9ebd a8fe 7f3d 99ad 003e 0477 5f3d
00000100: f833 b33a dea7 3b3c 78f2 803c ee08 3abe
00000110: fcf4 6c3e ac4b 4fbe 4865 d1bd 8082 91bd
00000120: ce5c 363e 69d0 053e 8378 51be bd3a 183e
00000130: cd20 8e3e 73f4 253b 133d eabd bac6 1dbe
00000140: 081b eebe e197 883b d642 9f3d 3e2f 82be
00000150: bf55 7d3d efed ecbd aa7c 9abd 6050 23be
00000160: 3123 b0bd f162 5dbd ebd2 1d3e fe01 93bd
00000170: a8e1 743d 1ba1 553e e244 8bbd 2cd7 563e
00000180: 3956 c83d 88b8 fabd be64 f8bd fb40 c23b
00000190: a5c6 033e f968 96be 6fad 14bd 8dc2 94bc
000001a0: 04a1 333e 863b 653e b8ef 4abe ed51 be3d
000001b0: cd2b 1f3e 8426 7abb 915d 613d 523d 8ebe
000001c0: 34d7 afbe b125 de3b a3ae 723e 3c30 89be
000001d0: 9a39 813d 52e7 0bbd 9966 3abe 5d1b 00bd
000001e0: 7983 9cbd 239c 78bd 8469 1f3e 9bf4 0a3e
000001f0: 2a89 8abc 242c ad3d 84ba 7ebd a702 553e
0.110954665 -0.14145325 0.013463327 -0.21183325 0.18223834 -0.2002797 -0.0357046 0.051433846
0.07653075 0.24711053 -0.34089142 0.15177195 0.23285457 0.1847439 -0.12783502 -0.15342404
-0.34537572 -0.14086606 0.23124297 -0.16997749 -0.052400723 -0.0059843534 -0.09552168 -0.18659727
-0.26482305 -0.05224116 0.08049402 -0.08533653 0.062930904 0.21112123 0.10627548 0.21063367
-0.031463403 0.0065080766 0.002210744 0.007520759 0.23600154 -0.30242693 -0.14415476 0.05849462
0.04537724 0.25938943 -0.2182678 -0.001708974 0.27822354 0.1862674 0.05380516 -0.15553235
-0.33846647 0.0012163195 0.23524031 -0.16323593 -0.04635396 -0.13024865 -0.07409566 -0.03214138
-0.08067809 -0.20179 -0.0013223772 0.13513403 -0.07746675 0.06249872 0.12566222 0.05455686
0.0013672104 0.011453597 0.015740618 -0.18167469 0.23140329 -0.2024371 -0.10224396 -0.07104969
0.1780884 0.13067783 -0.20456128 0.14866157 0.277594 0.0025322705 -0.1143743 -0.1540784
-0.46504998 0.004168496 0.0777642 -0.25426668 0.061849352 -0.1156882 -0.07543309 -0.1594863
-0.08600462 -0.054049436 0.1541249 -0.07178114 0.059785515 0.20862238 -0.06800248 0.20980519
0.09782071 -0.12242228 -0.1212859 0.0059281564 0.12868746 -0.29376963 -0.03629821 -0.018159175
0.17541891 0.22385988 -0.19818008 0.0929297 0.15544052 -0.003816993 0.055020873 -0.2778116
-0.34343874 0.0067793955 0.23699431 -0.26794612 0.06309815 -0.03415615 -0.182032 -0.031276096
-0.07642264 -0.06069578 0.15567595 0.13569872 -0.016911108 0.08455685 -0.062189594 0.20801793

1.gn.b0 f4 [32, 1]
00000000: bf4d 4bbf 44aa fdbe 9ccd edbe b786 aebe
00000010: 7b78 c9be 0874 14bf 17f8 f5be 0eae aebe
00000020: 9d44 8ebe 975f b4be 0fec 233d 3139 49bc
00000030: 22b3 44be 45a5 bcbd 8b1d 16bf ff80 3dbf
00000040: 50f3 91be 57f6 66be ca75 ccbe 1c1a bcbe
00000050: cdb6 97be 736e 42be d6cd f3be e8b2 14bf
00000060: f36f aabe 7732 a3be c1a2 05be c722 26bf
00000070: bcf9 1fbe af87 64be df38 5ebf 130f e0be
-0.79415506 -0.49543965 -0.4644593 -0.34087154 -0.39349732 -0.5798955 -0.4804084 -0.34117168
-0.27786723 -0.3522918 0.040020045 -0.012281702 -0.19208959 -0.0921121 -0.5863883 -0.7402496
-0.28505945 -0.22554909 -0.39933616 -0.3673867 -0.29631653 -0.18987446 -0.47617978 -0.5808549
-0.33288535 -0.3187444 -0.13050367 -0.64896816 -0.1562261 -0.22317384 -0.8680553 -0.437615

1.gn.b1 f4 [32, 1]
00000000: 07e1 86be 856b 2dbe b557 873e 917a 72be
00000010: 5708 b73d 1a1e d9bc fdc2 b7be c59c 99bd
00000020: 90ba 07be ddfc 9dbd cc01 193e f409 b63d
00000030: 515d 593e 418a 16bd 44eb 65be 9722 1b3f
00000040: e402 2f3e 47ff 6d3e 078f ac3e 851d 32be
00000050: a825 b6be 49a1 a2be 2807 883e 088e 54be
00000060: 7376 db3e 2b0b 943e 6637 a2be 7f16 83be
00000070: 7ed1 d0bd c9c2 34bd 3e14 82bd d009 a13e
-0.26343557 -0.16935547 0.26434103 -0.23679568 0.089371376 -0.026503611 -0.35890952 -0.075006045
-0.13254762 -0.077142455 0.14942092 0.08888617 0.21227004 -0.036752943 -0.22453028 0.60599655
0.17090946 0.23241912 0.3370287 -0.17394073 -0.35575604 -0.31763676 0.2656796 -0.20757306
0.42863807 0.2891477 -0.3168289 -0.256031 -0.101962075 -0.044131074 -0.06351517 0.314528

1.gn.b2 f4 [4, 1]
00000000: 77f9 12be 5947 f1bd 8c09 693d cec1 66bc
-0.14352976 -0.117811866 0.05689387 -0.014084293

1.mpn.w0 f4 [4, 64, 124]
00000000: e3fe ed3b 6ba3 c73c 9e94 393b 8aa6 d43c
00000010: 0221 163b 6a21 5a3d a9ca 513b 8b49 af3d
00000020: 134f 0a3d fd85 a83d 762a c9bc ef99 82bc
00000030: 0050 3abc 1bc4 61bc 7eb1 d1bb da5e 97bc
00000040: 0704 1f3b 2282 46bd 5391 fcba 2824 b9bd
00000050: 5caf fcbb 43bc 29be 5526 7fbc b7d3 85be
00000060: ddcd 463d b6a7 9b3b 7aa5 c63c fe30 e63b
00000070: 332d 233c 4d2e 8d3c 11bc 363c cc66 0e3c
00000080: 9296 fdbb c436 383d 3b13 11bb 052d 443c
00000090: e788 b0bc 7e7e 2f3d 45e7 89bd 4af2 b43d
000000a0: fcf7 b8bd 4c67 263e 3e36 66bd 4ec9 3d3e
000000b0: 9b38 d3bd 0a82 5b3e 0b2e 94bd fcb8 5a3e
000000c0: 478f fcbb bc5d ebbb bc03 553b a91b 1d39
000000d0: fe86 97b8 d8e2 513c 0a7f 85bb 2755 283d
000000e0: d2ef d43c 652d e0bc f03a 863c f71c 103d
000000f0: 1ce3 3b3b 4d05 5bb9 84cf ddbc 15fc a83c
00000100: e876 9ebc a408 443c 4b74 09bc e97e 85bd
00000110: 024c 063d 7175 06be f433 e93b 9465 92bd
00000120: 1190 c43c 7192 a43d 7a6d 6b3e 53cc cdbc
00000130: 83a4 1cbd 44ed 00bd a25e bcbd df72 313d
00000140: ee63 00be 0119 4dba 1c31 b8bc e5d4 26bd
00000150: 4b36 2a3d b68b 393e 4172 84bd a922 0f3e
00000160: ea25 423d 8e8a 54bd f0d6 993d 79dc f8bd
00000170: 49e8 00bd 912c 733d 976c 9e3d d442 0dbd
00000180: 811f 90bc c177 733d ac27 6cbc 08ab 223d
00000190: df4c 253d e7c1 e6bc adf2 33bd 66e2 e6bc
000001a0: aa41 47bb 93aa 1fba 2654 2abd 7140 f53a
000001b0: d24f 693c 54fd 28bb 3684 6fbc a016 89bc
000001c0: 2288 3abb b1a7 b9bc 0ba7 f9bc 31d9 ba3a
000001d0: 948e cdbc 15f8 2eba 2ea1 8cbc 5650 2d3c
000001e0: 8686 50bc 9001 33bd f607 d43b 09ea f33c
000001f0: 39dd 8e3c 154f 3d3d 282d 963c d3bc 0b3c
00000200: 767a c53c ac17 57bd 95ea 1b3c 4d2d 30bc
00000210: 303e bbbc a94d 243e d545 313c 331a 9a3b
00000220: b6b9 55bd ad14 7dbc 32cc 6fbd afac f4bc
00000230: 3d09 ffbc e276 de3b 0c06 63bd 5272 5d3d
00000240: 6e28 76bd be2a 703d 93f9 aebd 0d37 b43c
00000250: 9c92 d33c ff82 313d 393e 6e3c 001b 693c
00000260: a4af e73c ea10 c73b 772e 223d 43ac 1bbd
00000270: d2cb 95bc 8c32 4abe bc51 d13b bdc1 ef3b
00000280: 5865 0cbd ca89 853e e3ef 0abd e2b5 913e
00000290: 64dc 86bc 9f4c 363e dace 39bd 4ee6 393d
000002a0: 1c62 06bd 2511 a7bd 8469 60bd 781b d6bd
000002b0: 835f a8bc dc9a 4fbd baf7 f73c 30a3 7bbd
000002c0: 2a97 c5bb 23a7 843c 6c0c 76bd 23a7 663d
000002d0: 4f45 1a3c 61ab a03c 6509 103e b8e1 fb3d
000002e0: 83ee bdbc f475 99bc f9d3 6c3c 48cc a13a
000002f0: 606e a3bc 2885 3d3c 162e 04bc 1659 f53b
00000300: af94 60ba a835 90bd 28fa 7ebd 6d77 b8bd
00000310: 9fdd 8ebd a72a f13d 311f cf3d bcfe 1dbc
00000320: d3f7 3dbd b8e3 99bd 8561 793d a5e1 14be
00000330: 47ca b0bd e54e 51bc 89ca 3f3d 864c c13d
00000340: f855 6b3d 626e 14bd 19f2 0b3e c3ee 29bd
00000350: 1e61 4a3e aad2 40be 04a0 313d 1616 713d
00000360: e0c6 753d 0c98 173d 057c 683e 641c 0cbd
00000370: 3f70 8ebe 8072 373d 6cff 77bd 76b7 34be
00000380: d233 90bd d78b f4bc 3511 cebd 79c4 303e
00000390: 142b 033e 784d 823d 3999 cbbb febc a5bb
000003a0: 1d8f 103e 6e93 84bd b5bc d9bc bd43 213e
000003b0: 0420 c8bd f513 573c 9353 edbd 919f 2f3e
000003c0: 99ee 503b 6cd2 1e3d 87d3 a53d 5511 143d
000003d0: ad61 553c ed3e 80bc 02ff 87bc f69b a03d
000003e0: 1414 4a3c e5f3 27bc f4b0 0f3b 1741 c93b
000003f0: d0a3 303c 7124 bb3c 7f11 cb3b 7d06 fdbc
0.007263051 0.024369916 0.0028317343 0.025958318 0.0022907858 0.053254522 0.0032011664 0.08558949
0.033766817 0.08228681 -0.02455638 -0.015942542 -0.011371613 -0.013779665 -0.0063993325 -0.018477846
0.0024263875 -0.048463948 -0.0019269384 -0.090400994 -0.007711334 -0.16575722 -0.015573104 -0.26138088
0.04853617 0.0047502173 0.024248827 0.0070248833 0.009959507 0.017233992 0.011153237 0.008691501
-0.0077388966 0.044974104 -0.0022136706 0.011973624 -0.021549655 0.04284524 -0.06733564 0.088352755
-0.09031674 0.16250342 -0.056204073 0.18533823 -0.10313531 0.21436325 -0.072353445 0.21359628
-0.0077075097 -0.007182805 0.0032503447 0.00014982991 -7.225385e-05 0.012810431 -0.004073982 0.041096833
0.025993261 -0.027365396 0.016385525 0.035183873 0.0028669303 -0.00020887442 -0.02707649 0.020628015
-0.019343808 0.011964951 -0.008389543 -0.06518347 0.03278733 -0.13130738 0.007116789 -0.07148281
0.023994477 0.08035744 0.2299098 -0.025121843 -0.038242828 -0.031476274 -0.09197737 0.04332244
-0.1253812 -0.0007823855 -0.022484355 -0.040730376 0.041555684 0.18119702 -0.06467105 0.13978066
0.04739944 -0.05188995 0.07511699 -0.12151427 -0.031471524 0.059368674 0.077355556 -0.03448756
-0.017593147 0.059440378 -0.014413755 0.03971389 0.040356513 -0.028168632 -0.043932606 -0.028184127
-0.003040413 -0.0006090786 -0.041584156 0.0018711222 0.014240222 -0.002578576 -0.014618924 -0.016734421
-0.002846249 -0.02266297 -0.03047516 0.0014255402 -0.0250924 -0.00066745403 -0.0171667 0.010578236
-0.012727385 -0.043702662 0.0064706756 0.029774683 0.017439472 0.046217997 0.018332079 0.008528906
0.024106245 -0.05251281 0.009516378 -0.010752988 -0.022856802 0.1604525 0.010819872 0.00470283
-0.05217906 -0.015446824 -0.058544345 -0.029867498 -0.031132335 0.0067890743 -0.05542569 0.054064102
-0.06009715 0.058634512 -0.08543696 0.021998907 0.025826745 0.04333782 0.014541202 0.014227629
0.028281994 0.0060750144 0.039595094 -0.03800608 -0.018285666 -0.19745845 0.0063879173 0.0073167966
-0.034276336 0.26081687 -0.03392018 0.28459078 -0.016462512 0.17802666 -0.045363285 0.04538565
-0.03280841 -0.08157567 -0.054788128 -0.10454458 -0.020553356 -0.050684795 0.030269492 -0.061434925
-0.006029983 0.016192978 -0.06007044 0.056311738 0.0094159385 0.01961297 0.14066084 0.12298912
-0.02318502 -0.018733002 0.014454835 0.0012344206 -0.019950092 0.011567391 -0.008067628 0.0074874265
-0.00085670775 -0.07041484 -0.062250286 -0.09007154 -0.069758646 0.117757134 0.10113371 -0.009643253
-0.04637892 -0.07514137 0.060884017 -0.14539202 -0.08632331 -0.012775158 0.046824012 0.09438424
0.057455033 -0.03623808 0.13666572 -0.041487467 0.1976361 -0.18830362 0.043365493 0.058858953
0.060004115 0.037010238 0.2270356 -0.034206763 -0.27820012 0.04478693 -0.060546324 -0.1764811
-0.07041134 -0.029851837 -0.10061876 0.17262448 0.12809402 0.06362432 -0.006213334 -0.00505793
0.14117093 -0.064734325 -0.02657924 0.15748496 -0.097717315 0.013127317 -0.11588206 0.17150714
0.0031880497 0.038774893 0.08096986 0.03614934 0.013023776 -0.015655005 -0.01660109 0.07842247
0.012333889 -0.01025102 0.002192554 0.0061417925 0.010781243 0.022844525 0.006197154 -0.030886883

1.mpn.w1 f4 [4, 64, 64]
00000000: 569b be3c 2117 733c a01a 31bd d335 febd
00000010: be32 a2bc 5c04 1d3e 92b8 abbd bb62 1abe
00000020: 2f7c a63e b60b a2be 1144 b03d 5081 773d
00000030: 7f9c 95be e26f 653c 4cd1 fdbd cda4 2bbe
00000040: 6e3a 1a3b bb98 1abe 9a7c 4cbc dabd cfbd
00000050: e680 66be 8af3 7e3d eda9 c7bd ca30 d9bd
00000060: 1dc8 87bd e2f7 ac3d 283e 32be 48c4 08be
00000070: 9d15 7dbe 7ce1 2dbe e304 2d3d 1802 fabd
00000080: 55d3 813d aea0 a7bd a8df 9d3c e906 09be
00000090: 1e3d 4dbd b5f0 49be 9bba 5ebe 54e4 8e3e
000000a0: c46c dabc 6622 d7bd e475 563c 4990 593d
000000b0: dcd5 a9bd d417 70bd 4e68 c53c 8640 dd3d
000000c0: f484 a9bd 35d4 94be 7317 a23d ca56 bfbc
000000d0: 52e4 443d dbc7 56bc 2eea ddbd 93f3 c53d
000000e0: 9d1a a4bc 98a0 f3bc 1679 113d b2b7 30be
000000f0: 82f8 593d 261a 6bbc d7e4 63bd 6572 2fbd
00000100: b8df 373e 711d 0c3e 5edd f4bc ed3b 4ebe
00000110: 1ad2 6abd 503d 103d c2b5 11be d750 87bc
00000120: 93de 3639 bbb4 89bc da05 353e 279b 89bb
00000130: a899 cb3d c4c2 c03d 6f81 f53c 5e5d 3c3c
00000140: 0c5a 283e 46b8 2fbd 9de2 7cbc 587a d3bd
00000150: cd76 8cbe 673a ab3d 0e8a 3d3c 9294 1b3d
00000160: 4858 183d ae05 673d ad34 a6bd 3e4c 19be
00000170: bec2 433d 7ad4 8fbc 3370 333d 280e 04bd
00000180: 6dda f1bd e2f1 323d 411e 673d ec49 88bd
00000190: d970 7abd 1cc4 083d 7a48 2d3c 7236 afbd
000001a0: 4e7d c9bc 6fea 1bbe 0173 3fbd 492f 743d
000001b0: 093f a8bc 6de3 233e a0cd bb3d 0112 52bd
000001c0: f469 d4bd f642 fc3a 15f9 923c 946a 093c
000001d0: aefe debd 3c8a a63d dbd0 0bbd a200 83bc
000001e0: 64d3 843e 5932 26bd cc6d c73c 46ac 283c
000001f0: 6bf5 56be 729e ecbc b313 1f3d bcab b9bb
00000200: 589a fabd f25e a53b 13b4 8b3c ff03 afbd
00000210: 2842 723d aee5 0cbe d5b9 4fbd b084 03bc
00000220: b8ae ee3c b779 3c3c a1fb 9e3d 00b5 4e3d
00000230: 99d5 af3d 56c2 b8bc 196d 59be c406 973b
00000240: d3ee d63c 61ec 373d d555 debc 9492 33be
00000250: fdca 113d 96ce 6f3b 65a1 5c3b eff5 c93b
00000260: e47c 063d c028 1b3d 56a4 97bd 73b9 48bd
00000270: 8f48 a03c e9c6 253d 790c bf3c f33c 48bd
00000280: 8252 6a3d 08f0 8dbd 66f8 11bd 38b6 af3d
00000290: 90c6 33bb 9f6e a43d 283c 19bd 3279 6abd
000002a0: d80a 83bc 03ab e7bd 2d68 213b 07d4 0fbd
000002b0: c14d 883b fe55 49be 8ba4 de3a b504 833c
000002c0: 09bb f0bb 1500 a93b cd07 71bd e406 11bc
000002d0: 7856 d2bc 01e9 ecbd 799c 4e3d d87b 4abd
000002e0: 2e5e 5ebe 3cdb 91bd 0533 b43d 4606 2d39
000002f0: bddc 41bc a32a 4dbc aca3 79bd 50d9 1f3d
00000300: cf54 8c3d c3e0 a03d c0e2 d53d 25c1 cabd
00000310: a99e fe3d f549 093d a975 bebd 976c ec3a
00000320: 7f10 b0bd 401f e43b 910a 483c 6862 573d
00000330: c863 493d f7b7 573d 5111 f8bc d45f 643d
00000340: 38ac c83d b6d8 4abd 9a05 9ebd 7d71 4f3e
00000350: 13e5 753e 223b 80be 247a 52ba 9bcc 073d
00000360: 533d e23c ef74 24be be34 53bd 7c4e a3bd
00000370: b026 e9bc 5504 963d c7fe ca3c eccf efbd
00000380: cec1 afbd c222 bf3d 7f7a 743e 909e b03d
00000390: aba3 163d 0d64 04bd 74cc 0bbb 859e 29bd
000003a0: 4ee6 3f3e 93f4 eb3c 76d2 44bd 9bf6 173d
000003b0: 4897 743d 2823 48be 608a ecbd 4d08 dabd
000003c0: 07eb 4b3c 5095 99bb df3c d0be 6f06 b4bd
000003d0: d6ca c5be f2a3 55be 864b 91bc 72c2 09be
000003e0: c3f7 5fbd 5a47 1bbf 2fcc e33d 7c8f a73b
000003f0: e1e7 cebc 6406 1fbe 3be0 0cbc fe82 c33d
0.02326743 0.014837057 -0.043238282 -0.1241261 -0.019799586 0.15333694 -0.08384813 -0.15076725
0.3251662 -0.3164956 0.08606733 0.060426056 -0.2922096 0.014003726 -0.12393436 -0.16762085
0.0023533362 -0.15097325 -0.012480879 -0.10143633 -0.22510108 0.062243976 -0.09749208 -0.10605009
-0.066299655 0.084457174 -0.17406523 -0.13356125 -0.24715276 -0.16980547 0.04224099 -0.122074306
0.063391365 -0.08184944 0.019271687 -0.13381542 -0.050107114 -0.19720729 -0.21750872 0.27908576
-0.026663192 -0.10504608 0.013089631 0.053116117 -0.082927436 -0.058616474 0.024097588 0.108033225
-0.08277312 -0.2906815 0.07914629 -0.023356814 0.048069306 -0.013109173 -0.10835682 0.09665599
-0.020032221 -0.029739663 0.035515867 -0.17257574 0.05321551 -0.014349496 -0.05563816 -0.042833705
0.17956436 0.13683106 -0.029890712 -0.20140047 -0.057329275 0.035214722 -0.14229491 -0.01651804
0.00017439788 -0.016809812 0.17678013 -0.004199404 0.09941417 0.094121486 0.029968945 0.01149687
0.164406 -0.042900346 -0.015434888 -0.103260696 -0.27434388 0.08360749 0.011568559 0.037983485
0.037193567 0.0564019 -0.08115516 -0.1497049 0.047793142 -0.017557371 0.043808173 -0.032240063
-0.118092395 0.04368771 0.056425337 -0.066547245 -0.061142776 0.03339015 0.010576362 -0.085553065
-0.024595883 -0.15226148 -0.046740536 0.059615407 -0.02053787 0.16004725 0.09170079 -0.0512867
-0.103717715 0.001924603 0.017941037 0.008387227 -0.1088842 0.08131835 -0.034134727 -0.015991513
0.25942528 -0.04057536 0.024344347 0.010294979 -0.20992057 -0.028884146 0.038837146 -0.0056662243
-0.1223647 0.0050467188 0.01705364 -0.08545684 0.059145123 -0.13759491 -0.050714333 -0.008027241
0.029136047 0.011503628 0.07762838 0.050465584 0.085856624 -0.022553604 -0.21233024 0.004608961
0.026236927 0.044903163 -0.027140537 -0.17536384 0.035593975 0.003659164 0.0033665535 0.006163351
0.03283395 0.03788066 -0.074043915 -0.049004983 0.019565849 0.0404729 0.023321377 -0.04888625
0.05720759 -0.06930548 -0.03563728 0.08579677 -0.0027431585 0.08028912 -0.037410885 -0.057244487
-0.015996382 -0.11311915 0.0024628744 -0.035114314 0.0041596596 -0.1966171 0.0016986293 0.015993455
-0.007346515 0.0051574805 -0.05884533 -0.0088517405 -0.025675997 -0.115678795 0.050442193 -0.049434513
-0.21715614 -0.07121894 0.08798794 0.00016500903 -0.011832413 -0.012522372 -0.060947105 0.039025605
0.068521135 0.0785537 0.1044364 -0.09900121 0.12432606 0.033517797 -0.09299786 0.0018037733
-0.085968964 0.006961733 0.0122095505 0.052584082 0.049167424 0.052665677 -0.030281695 0.05575545
0.09798473 -0.049523078 -0.07715912 0.20258136 0.24013166 -0.25045115 -0.00080290646 0.03315411
0.027617132 -0.16060232 -0.05156397 -0.07973954 -0.02846083 0.07325045 0.02477969 -0.1170958
-0.08581887 0.093328014 0.23874854 0.086239934 0.03677718 -0.03232198 -0.002133158 -0.04141094
0.18740198 0.028803146 -0.048052274 0.037100416 0.059714586 -0.19544661 -0.115498304 -0.106461145
0.012446172 -0.004686989 -0.4067144 -0.087902896 -0.38631314 -0.20863321 -0.017736208 -0.13453081
-0.054679643 -0.6065575 0.11122929 0.00511354 -0.025257053 -0.15529782 -0.008598383 0.09546469

1.mpn.w2 f4 [4, 91, 64]
00000000: d2c0 febc b42a 7c3b a703 17bd 73a2 473b
00000010: c216 0d3b 2e00 e63b 08b7 40bd 7074 d23a
00000020: 7d34 243d 9315 c43c 0cc7 8dbc 50d8 c1bb
00000030: eb9b cf3c 72e1 e9bc c2cb 303c 512b 433c
00000040: 12ff 443d ae69 003c 0ce7 f4bc d035 d03c
00000050: 7b6e e93c e947 5dbc cb53 c4bc a59f a1bc
00000060: 1234 3bbc e566 81bd a168 35bc d155 16bd
00000070: 88f0 873b 4955 8cbd f639 633a 0345 5cbd
00000080: 3ba9 213c 2fca 4bbd f1c7 94bc 1e3b f3bc
00000090: 36b3 28bc 2ceb 183d e21c 66bd 7c8a bcbb
000000a0: d844 4cbc e857 27bb f98c 56bd 57da 40bc
000000b0: 7a02 05ba 7015 0bbd 2285 33bb 32a1 90bc
000000c0: 0edc 9fbc e15a 56bd ee79 273c 915c 14bd
000000d0: 6f0a 0c3c e448 80bc f935 b4bc e836 f03b
000000e0: 3f1d bcbb 4f20 d83c 73bd 2539 520c af3c
000000f0: 8a2e 943c 8b1d 8f3c 480d a7bc e70b 02bd
00000100: 3b50 b4bc 197c 6a3c 93b2 483d e6b0 68bc
00000110: a465 d9bb ee7c 663b 69d7 90bd 1e56 89bc
00000120: 6419 90bc a14d 513d a2d6 1ebd ef4e 9bbc
00000130: ee70 9cba 9c8f 07bd ea89 583d 7501 753c
00000140: 88d6 66bc e074 18bc e81d 09bd 8dd6 533d
00000150: 291e a43c d1f3 65bc e61a 48bd dbd4 bbbc
00000160: 5176 6abc 8a84 d4bb 88a2 b139 05ea 393c
00000170: 2f74 013d 7665 b3bb 1514 693c efc4 b3bc
00000180: f86a 9a3b 587f 1abd 7dc9 a0bc e303 083d
00000190: 0f8d 1cbc 43a5 a33d 5c18 04bd 1988 8d3c
000001a0: dfaf b9bc d4a3 d53c a4e1 8fbd 2c21 03bc
000001b0: fd5d 29bd 8526 aebc 2326 19bd 67c6 333d
000001c0: 842a ecbc 58fa 03bd 4a8a 423c 272c ba3c
000001d0: 22bb 4f3b 8154 533d eeb2 a7bc 3378 0b3c
000001e0: 0a5a 96bc 3309 823b 6b8c 063d 3c69 373d
000001f0: b28b c93c c67f 17bd eeee 573d d2ba 87bd
00000200: e89d 96bc 903f 173b d6cf 51bd e282 ec3a
00000210: c9c5 483c 85b6 203c 90a2 c7bc 355d 683c
00000220: f54f 0f3d 10c8 913c 6aab 72bc d9b2 20bc
00000230: d461 e93c f976 b3bc a430 673b 82e7 973c
00000240: a106 813d f7a4 1d3c 0a9f 8fbc 6426 9b3c
00000250: a6d5 043d 7f25 69bc 6e86 48bb 3df1 d3bc
00000260: 45eb eabc ecd2 94bd 7674 18bc 9a80 81bd
00000270: 7b18 643b 4275 9ebd 3e54 87bc 2d4d 7ebd
00000280: ae01 7b3c 2450 34bd 2e55 35bc b3e4 30bd
00000290: 46cb 3dbc f1f3 073d 03a2 69bd 830d c2bc
000002a0: a945 3dbc 66c6 99bb a781 1fbd 4161 04bc
000002b0: f576 b5bb 3bc6 16bd ed49 013b be91 553b
000002c0: 06ff 35bd 2578 2fbd f99b 313c a299 26bd
000002d0: 98db 583c db42 e0bc df2c bbbc 8042 163c
000002e0: 3cd2 d6bb 1dd0 0c3d 36af 93bc 4d81 8c3c
000002f0: 63aa e93c 4244 383d 5de0 14bd 210e b3bc
00000300: 58a8 1abd fe25 563c 4115 813d 5ce5 0ebc
00000310: be20 a13c ae5b 0e3c 2623 3ebd 4ef5 02bc
00000320: 3f5d 3abd b429 683d 43d4 46bd 222f b0bc
00000330: d471 813c fcaa 10bd b7b9 a33d b019 603b
00000340: c37f 393c fc20 06bc 16de 19bd 4690 733d
00000350: 1fd6 073d 589c 91bc 3467 85bd f8b3 02bd
00000360: cbbb b6bc 910d 1fbc 26f9 2cbb 2f02 24bc
00000370: 92ef f03c b874 c4bc a8c9 263c 67a4 debc
00000380: 7f99 383c e0ba 28bd ee8f 0ebd a172 1b3d
00000390: 944e 4ebc 87f9 8d3d e652 02bd e3c7 8d3c
000003a0: 92b7 a2bc 8809 e43c fd8a 99bd 1ef3 dbba
000003b0: b7ac 83bd b6eb febc b39d 54bd da91 633d
000003c0: 2515 31bd b09e f7bc f6e9 ed3b cca3 883c
000003d0: a802 9f3c 4b94 7d3c c94a 05bd 0571 8b3c
000003e0: 6fbf 63bc fd82 b33c ba65 d13c cdbc 773d
000003f0: 206f 303d 9a91 5bbd 5a9a 093d db56 9cbd
-0.031097803 0.0038477601 -0.036868718 0.0030461818 0.0021528457 0.0070190644 -0.047049552 0.001605643
0.04008912 0.023936069 -0.017306827 -0.005915679 0.025342902 -0.028549884 0.010790767 0.011912183
0.048094817 0.007837696 -0.029895328 0.025416285 0.028495064 -0.013505914 -0.023965737 -0.019729445
-0.011425989 -0.06318454 -0.011072309 -0.036702935 0.0041485466 -0.06852204 0.00086679996 -0.053776752
0.009867008 -0.049753364 -0.018161746 -0.029691275 -0.0102966335 0.037333652 -0.05617989 -0.0057538133
-0.0124675855 -0.0025534574 -0.052380536 -0.011770806 -0.00050739164 -0.03395599 -0.0027392586 -0.017654989
-0.01951411 -0.052332763 0.010221941 -0.03622109 0.008547409 -0.015659757 -0.021998392 0.007330764
-0.005740791 0.026382593 0.00015806202 0.02136818 0.018088598 0.017470142 -0.020392075 -0.031749632
-0.022010913 0.014311814 0.048998427 -0.014202332 -0.006634431 0.0035169679 -0.07072336 -0.016764697
-0.017590232 0.051099423 -0.03877891 -0.018958537 -0.0011935511 -0.03309594 0.0528659 0.014953961
-0.014089234 -0.009305209 -0.033475786 0.051718283 0.020033913 -0.014035181 -0.048853777 -0.022928646
-0.014310435 -0.0064855264 0.00033881166 0.0113472985 0.031604942 -0.0054747416 0.014225979 -0.021944491
0.0047124587 -0.0377191 -0.019627327 0.03320683 -0.009555115 0.079905055 -0.032249793 0.01727681
-0.02266687 0.026079096 -0.070254594 -0.008003514 -0.0413494 -0.021258602 -0.037389886 0.043890383
-0.028828867 -0.03222117 0.011873791 0.022726132 0.0031697233 0.05159426 -0.020471063 0.008512544
-0.01835348 0.003968382 0.032848757 0.044778094 0.024602745 -0.03698709 0.052718095 -0.0662743
-0.018385842 0.0023078658 -0.0512236 0.0018044377 0.012254187 0.009809141 -0.024369508 0.014182379
0.034988362 0.017795593 -0.014811376 -0.009808266 0.02848903 -0.021907317 0.0035276795 0.018543009
0.063000925 0.00962185 -0.01753189 0.018939205 0.032430314 -0.014230131 -0.0030597704 -0.025871867
-0.028676638 -0.07266793 -0.00930511 -0.06323357 0.003480463 -0.07737209 -0.016519662 -0.06208532
0.015320225 -0.04402174 -0.011067672 -0.043186855 -0.011584109 0.033191625 -0.057039272 -0.023688084
-0.011552253 -0.0046928404 -0.038942005 -0.008079828 -0.0055378624 -0.03681014 0.00197279 0.003258809
-0.044432662 -0.042839188 0.010840409 -0.04067386 0.013235949 -0.02737563 -0.022848545 0.009171128
-0.0065558236 0.03437816 -0.018027883 0.0171515 0.02852363 0.04498697 -0.036346782 -0.021857323
-0.0377582 0.0130705815 0.06302882 -0.008721676 0.019668933 0.00868885 -0.04642024 -0.0079930555
-0.045499083 0.056680396 -0.048542272 -0.02150685 0.015801348 -0.035319313 0.07994407 0.0034194998
0.011321965 -0.008186575 -0.037565313 0.05946376 0.033163186 -0.017774746 -0.06513825 -0.031909913
-0.022306344 -0.009707824 -0.0026393621 -0.010010286 0.029411111 -0.023981437 0.0101799145 -0.027178003
0.011267065 -0.041193843 -0.03480523 0.037951116 -0.012591977 0.06932359 -0.03181734 0.017307227
-0.019862924 0.027836576 -0.07497213 -0.0016780829 -0.06429427 -0.031118255 -0.051908206 0.055559017
-0.043233056 -0.030227035 0.0072605563 0.016679667 0.019410446 0.01547725 -0.032542024 0.017021665
-0.013900622 0.021913046 0.025561202 0.06048279 0.043074727 -0.053605653 0.033594467 -0.07633754

1.mpn.b0 f4 [4, 64, 1]
00000000: b9bc f53d f190 813d 49d0 59bd 0a01 c13e
00000010: ad7e 1b3f b376 e43d 6662 8c3e 9e81 8a3f
00000020: 5768 1bbe e9fa 363e 3468 8b3d 5aa0 313f
00000030: 575a 9539 f801 fa3c f060 993e a6e7 1d3f
00000040: 4da7 e03b 659b af3d cff8 0abd 5bf5 d33e
00000050: e4a4 0a3f 5cb0 9fbe 88ce 7fbe 26f3 94bd
00000060: 9512 923e afb3 0f3e 78a4 c83d 068c 93bb
00000070: 47e0 ccbc 2864 a43e e843 bfbe a00a 143e
00000080: 6f0e c7bd 7259 913e 58ad 1dbe 1025 803f
00000090: 6d47 e93e f9f9 493d 6f94 e63e 099d 33be
000000a0: cad8 b4be 295e af3d dd26 10be 5a9e 693d
000000b0: 1e0e 203e c792 0b3f fd11 8d3e 6c8d 34be
000000c0: 507b ff3e 0220 83be c9b9 0cbe 10fb 0d3d
000000d0: 9377 0dbf fd3b 13be 766d 19bd c311 e53e
000000e0: 9687 943e e663 a6be 0ed4 0d3d 0cb4 a5be
000000f0: 887b bcbd 5f5e a23d 8805 1f3f a193 2fbd
00000100: a268 8bbd 9dab 863d 0ab8 8e3e 0bfe 8e3d
00000110: dc95 2b3e b909 983c 98e4 673e 909b 3dbe
00000120: 7434 db3e 823f 9ebe 9eff 993d 5b89 5bbd
00000130: f2eb a1be 352b e13b 2fa7 083f 75f8 673d
00000140: 664a e33e 983c 033e 1097 ce3e 7557 7b3e
00000150: d5e4 7f3d 7f14 563e e79e e6be baff ba3d
00000160: 5bef f53e 6e68 123e ba6b 2e3e 4c56 5abe
00000170: f707 8ebe c0a1 fabd 7ae5 af3e 0414 9f3e
00000180: 7e8b 2bbe f59d e0bd a737 663d 6e22 2bbe
00000190: 9439 4fbe 6f5f 833e 9876 71be 30c8 b63c
000001a0: 3f0e 873e cfaa 53be c557 3d3d dee4 87bd
000001b0: 06b0 7f3e 48c4 71be d939 033e 913b 5f3d
000001c0: a85f 413d f469 61be 99ae b63e 01e0 833d
000001d0: fa30 dfbd 71db 5cbe edfc 65bd a504 b93e
000001e0: 25e6 4cbe d230 dabd 958c a3bd fa70 dabe
000001f0: ef30 ec3e 499a 7e3e 27a4 6b3d 9e1a 093e
00000200: adcf 6ebe 0334 8d3d a184 c63d 45bf 9f3c
00000210: 3742 0b3e f78d ec3e b4ac fc3e bd01 3e3f
00000220: b811 29be a8f6 bf3e 30a7 97bd 12b0 2c3f
00000230: c04d 4f3e 75f7 ef3c ecd4 b83d aff7 163f
00000240: f492 ce3d d203 59be c42b 9ebe 3a55 5cbe
00000250: 4046 833e 5d5c e63d fe9c 25be 2060 80be
00000260: 48e7 0c3d c851 963e 60ad ac3d a1db c1bb
00000270: 5bdc 803e c35c 8d3e abe7 91be d2d0 3ebd
00000280: 3e17 62bd 0c7a 5b3e 9976 263e 2275 2b3f
00000290: e894 aa3e d614 813d 0715 68bd 640f f33e
000002a0: afc3 afbe 725e 893e 42f9 563b 4cf4 50be
000002b0: 9951 17be 575e 203f 486e 313e a7d4 66bd
000002c0: 915e 663d c3a9 d5bd 869c d2bd 54fb 193e
000002d0: 4ba5 d4be 2ff4 583e 3f7f 11be dd6c a6bd
000002e0: 2d79 b83e 53f5 5fbe 2dc6 2cbb 2f73 83bd
000002f0: 6eaa afbe 4d91 603e 1314 2d3f f08c 073e
00000300: fb55 3e3e 1a69 1dbe 3c5e 1abe bc3d 9ebe
00000310: bf49 a6be f48f 42be a167 77bd e6a4 a1be
00000320: d87a 91be ab7a d13e 6486 c7be 0005 da3d
00000330: d2a2 f73c 6c31 6ebe 4236 abbe 57f0 b7bd
00000340: 19fc 64be fc8d e13d 3ff7 12bf 2045 76be
00000350: a9df f5bd 50da 5fbe ad86 8b3e f1d7 d5be
00000360: 635a 703e 9953 be3e 72e6 15be b9c0 72be
00000370: fd82 823e 1c04 4abe 772a b83e 55c1 b7bd
00000380: 6a17 8d3e 0cc6 bebc 8bb2 c0bd 1455 99bc
00000390: c5e2 8ebd 4cad 783e ea53 0dbc 85d2 753d
000003a0: e0a1 803e f8fb 26bd 83ad a93e 7ad3 92be
000003b0: 7411 ddbe ccc1 66be 79a7 6ebe 226e 4a3e
000003c0: e2f0 e6be d07d 7a3e 9168 cbbd bf82 0abf
000003d0: d30b a33e 0af7 c6bd 989c df3e 9de6 aebe
000003e0: 320c 3c3e f2ae 973e b82a a03e 477e 5e3e
000003f0: a313 073f d68f e9bd 4ca2 aebe 1a57 1abe
0.119988866 0.063264735 -0.05317715 0.37696105 0.60740167 0.111554526 0.27418822 1.0820806
-0.15176521 0.17869152 0.068069845 0.693853 0.00028486803 0.030518517 0.2995677 0.6168159
0.0068558813 0.08574561 -0.03392869 0.4139813 0.54157853 -0.3118924 -0.24981129 -0.072729394
0.28529802 0.14033388 0.09796995 -0.004502776 -0.025009288 0.32107663 -0.37356496 0.14457178
-0.0971955 0.28388554 -0.15398157 1.001131 0.45562306 0.049310658 0.4503512 -0.17540373
-0.35321647 0.085628815 -0.14077325 0.05703578 0.15630385 0.5452084 0.27552786 -0.17632073
0.49898767 -0.25610358 -0.13742746 0.03466326 -0.5526058 -0.14378352 -0.037457906 0.44740114
0.29009694 -0.3249809 0.03462606 -0.32363927 -0.09203249 0.07928156 0.62117815 -0.0428654
-0.068070665 0.065757014 0.27874786 0.069820486 0.16756386 0.018559324 0.22645795 -0.18516374
0.42813456 -0.30907828 0.07519458 -0.05359779 -0.31625324 0.0068716058 0.533801 0.05663343
0.443927 0.12816083 0.40349627 0.24545081 0.06247409 0.20906256 -0.45043108 0.09130807
0.48034176 0.1429765 0.17033282 -0.21321982 -0.27740452 -0.122378826 0.34354764 0.31069958
-0.16752431 -0.10967628 0.056205418 -0.16712353 -0.20236808 0.25658748 -0.23580396 0.022312254
0.26378056 -0.20670627 0.04622628 -0.0663545 0.24969491 -0.23610032 0.12815036 0.054500166
0.047210366 -0.22013074 0.35680082 0.0643921 -0.108980134 -0.21568085 -0.056149412 0.36136356
-0.20009668 -0.10653843 -0.07985798 -0.4266432 0.46131083 0.24863543 0.057529595 0.1338906
-0.2332141 0.06894686 0.09693266 0.019500384 0.13599478 0.4620206 0.49350512 0.742214
-0.16510665 0.3749287 -0.07404935 0.6745616 0.20244503 0.029292801 0.090249866 0.58971685
0.10086623 -0.21192864 -0.30892766 -0.21516886 0.25639534 0.11248086 -0.16173169 -0.25073338
0.034400254 0.2935927 0.08431506 -0.0059160744 0.25168118 0.27609834 -0.2849706 -0.046585865
-0.055197947 0.21433276 0.16256179 0.66975605 0.3331673 0.06302802 -0.05666068 0.4747268
-0.34328982 0.2682987 0.0032802378 -0.20405692 -0.14777221 0.6264395 0.17327225 -0.056355145
0.05624253 -0.1043277 -0.10283761 0.1503728 -0.4153236 0.21186899 -0.14208697 -0.08126233
0.3602995 -0.21870928 -0.002636324 -0.06418454 -0.34309715 0.21930428 0.67608756 0.13237357
0.18587486 -0.15372124 -0.1507501 -0.30906475 -0.3247814 -0.19000226 -0.060401563 -0.3157112
-0.28414035 0.409139 -0.3896972 0.10645485 0.030229006 -0.2326104 -0.33439833 -0.08981388
-0.22361793 0.110134095 -0.5740852 -0.24049807 -0.120055504 -0.21860623 0.27251187 -0.41766313
0.2347198 0.37173155 -0.14638689 -0.2370633 0.2549056 -0.1972813 0.35969898 -0.08972422
0.27556926 -0.023287795 -0.09409054 -0.018717326 -0.069768466 0.24284858 -0.008625964 0.06001522
0.251235 -0.04076764 0.3314019 -0.2867697 -0.43177378 -0.22534865 -0.23306073 0.19768575
-0.45105654 0.24462056 -0.09932054 -0.5410575 0.3184496 -0.09715088 0.4367416 -0.3416032
0.18364027 0.2962566 0.31282592 0.21727858 0.5276434 -0.11404388 -0.34108198 -0.15072289
